Homework2/bc_policy_k5.pt (torch, 275601 bytes, 6 tensors)

net.0.weight f4 [256, 3]
0	0x3ec6c00a	0.3881839
1	0x3e441233	0.19147567
2	0xbe1fea2c	-0.15616673
3	0x3da5915d	0.080843665
4	0xbdf57d18	-0.1198675
5	0x3efd8c51	0.49521115
6	0xbe880eff	-0.2657394
7	0x3e8ec6f2	0.27886158
8	0xbdd99794	-0.10624614
9	0x3e0686c9	0.13137354
10	0x3ef891ee	0.48548836
11	0x3f0a43bb	0.540096
12	0xbe522eea	-0.20525709
13	0x3f280778	0.65636396
14	0x3e57702c	0.21038884
15	0xbe27d60e	-0.16390249
16	0x3d1b873f	0.037970778
17	0x3ece1e0b	0.40257296
18	0xbeb2dd00	-0.34934235
19	0x3f12314f	0.5710649
20	0x3eff023c	0.49806392
21	0x3ec7c478	0.3901708
22	0xbea5ae7e	-0.3235969
23	0x3e0cf624	0.1376577
24	0x3f095d45	0.53657943
25	0x3f066ed9	0.5251289
26	0x3eab2c7f	0.33432385
27	0x3b56fdf7	0.0032805183
28	0xbe0ad303	-0.13557057
29	0x3de3a2ed	0.1111506
30	0x3ea2b8fa	0.3178175
31	0x3e1e6d6c	0.15471429
32	0xbd3777c9	-0.04479197
33	0xbeae6ba0	-0.34066486
34	0xbdcd719a	-0.100314334
35	0x3ee29729	0.4425595
36	0xbea1322f	-0.314836
37	0xbf0f69d0	-0.5602083
38	0xbec3b669	-0.38225105
39	0xbf00aa56	-0.5025991
40	0xbe064254	-0.1311124
41	0x3e952069	0.2912629
42	0xbbcc55fc	-0.006235836
43	0x3f047752	0.5174457
44	0x3ea6a711	0.32549337
45	0xbeb0e021	-0.34545997
46	0xbe4debdb	-0.20109503
47	0x3e63fd71	0.22264649
48	0x3d8dfaeb	0.069326244
49	0x3f1b1a1b	0.6058671
50	0x3eb4d6c7	0.35320112
51	0xbed2b803	-0.41156015
52	0xbea2f68f	-0.31828734
53	0xbebe0aff	-0.37117764
54	0x3e3be945	0.18350704
55	0xbca3af4c	-0.019981049
56	0x3ebb858f	0.36625335
57	0x3ec6047c	0.38675296
58	0x3f00ef26	0.5036491
59	0xbc2858b2	-0.010275053
60	0xbe59ce2a	-0.21270052
61	0x3e5b15e5	0.21395071
62	0xbec758f4	-0.38935053
63	0x3ec05181	0.37562183
64	0xbe3e647a	-0.18593016
65	0xbed54148	-0.41651368
66	0xbdd29802	-0.102828994
67	0xbe907b68	-0.28219151
68	0x3e3a9e30	0.18224406
69	0xbdb9bc04	-0.09069064
70	0xbf176b86	-0.5914844
71	0x3ee221dc	0.44166458
72	0x3d36a706	0.04459288
73	0xbec3e625	-0.38261524
74	0xbf018a45	-0.5060161
75	0x3ea55844	0.32293904
76	0x3e4bec26	0.19914302
77	0x3e48fc16	0.19627413
78	0x3ee50aef	0.44734904
79	0x3f01771a	0.5057236
80	0xbdf31f85	-0.11871246
81	0xbcc3ac2d	-0.02388581
82	0xbe14c5fd	-0.14528652
83	0x3eb480ad	0.35254422
84	0xbdb24f83	-0.08706572
85	0x3e54f001	0.20794679
86	0xbdd91d06	-0.10601239
87	0x3eab2946	0.33429927
88	0xbf121f29	-0.57078797
89	0x3e1dfbfe	0.15428159
90	0x3e74bdbe	0.23900506
91	0xbef8b5a3	-0.48576078
92	0x3de6a03c	0.11261031
93	0x3e35d969	0.17758717
94	0x3ee524ac	0.4475454
95	0xbea985d7	-0.33109924
96	0x3ea713e1	0.32632354
97	0xbf02fea7	-0.5116982
98	0xbdaeb46e	-0.08530508
99	0xbee7182f	-0.45135638
100	0x3e83f0ea	0.2576974
101	0x3e9909d6	0.29890317
102	0xbedfb36e	-0.4369158
103	0x3e9678b1	0.29388955
104	0x3ea42134	0.32056582
105	0xbe076909	-0.13223661
106	0x3e0bb3a7	0.1364275
107	0x3e15558c	0.14583415
108	0xbe6a7fa2	-0.2290025
109	0x3e7fd265	0.24982603
110	0xbe95ebe8	-0.29281545
111	0x3d928bb5	0.07155553
112	0x3edf88eb	0.43659148
113	0x3dcecfde	0.10098241
114	0xbe832e2c	-0.25621164
115	0x3ee1ae3a	0.44078237
116	0xbe25a126	-0.16174755
117	0x3d2c362c	0.04204385
118	0x3e7b3357	0.24531303
119	0x3ef7aea8	0.4837544
120	0x3ec69ce6	0.3879158
121	0xbf13ed9f	-0.57784456
122	0x3f089faa	0.5336863
123	0x3e68d682	0.22738078
124	0xbefa1f9a	-0.48852235
125	0xbcd0906b	-0.025459489
126	0x3e183796	0.14864954
127	0xbeaff4f3	-0.3436657
128	0x3eef7f7f	0.4677696
129	0xbf0df5d0	-0.55453205
130	0xbe069a3c	-0.13144773
131	0xbde3b44e	-0.11118375
132	0xbf080226	-0.5312828
133	0x3ae1ca4c	0.0017226427
134	0xbd7be528	-0.061497837
135	0x3b86fba8	0.004119355
136	0xbe022309	-0.12708677
137	0xbe450c2b	-0.19242923
138	0x3ea3d06d	0.31994954
139	0xbf078517	-0.52937454
140	0xbee641e6	-0.44972152
141	0x3db0da83	0.08635428
142	0x3efe5327	0.49672815
143	0x3ef5b3ce	0.47988743
144	0xbf0731ad	-0.52810174
145	0xbf10358d	-0.5633171
146	0x3ecea561	0.4036055
147	0x3f03aa97	0.51432174
148	0xbf0d5d3f	-0.5522041
149	0x3e5be39d	0.21473546
150	0x3cb59d93	0.022169864
151	0xbef30c04	-0.47470105
152	0xbefd60d8	-0.49487948
153	0x3ecedbcf	0.40402076
154	0x3e51352c	0.2043044
155	0x3f0a1965	0.53945
156	0x3c910cb2	0.017706249
157	0xbee5cc50	-0.4488244
158	0xbd634173	-0.05548234
159	0x3ecd8ccc	0.40146482
160	0xbf10a408	-0.5650029
161	0x3e43490b	0.19070832
162	0x3e463c56	0.19358954
163	0x3efb5fbf	0.49096486
164	0x3e5755a2	0.2102876
165	0xbe9ad04e	-0.3023705
166	0xbee3cc8d	-0.44491997
167	0x3d79440a	0.060855903
168	0x3ed9468a	0.4243663
169	0x3e11cc00	0.14237976
170	0x3e584b44	0.21122462
171	0xbdbbd942	-0.09172298
172	0x3e851270	0.2599063
173	0x3e93594e	0.28779072
174	0xbe27989f	-0.16366814
175	0x3ed1055e	0.40824407
176	0xbef9b361	-0.48769668
177	0xbed587f2	-0.4170528
178	0x3ec96741	0.3933659
179	0x3e1ca0d0	0.1529572
180	0x3ecdae25	0.40171924
181	0x3ede9a5b	0.4347714
182	0x3dc02c01	0.09383393
183	0x3eafcd17	0.3433616
184	0x3e47e140	0.1951952
185	0x3ea5b716	0.32366246
186	0xbe695b31	-0.22788693
187	0xbf102d5b	-0.56319207
188	0xbe82039d	-0.25393382
189	0xbdb7f0d8	-0.08981484
190	0x3ec02b71	0.37533143
191	0x3eaea357	0.34108993
192	0x3ccb00c7	0.024780644
193	0xbc43920d	-0.011936677
194	0x3ef9637d	0.48708716
195	0xbed1b403	-0.4095765
196	0x3ca1e1af	0.019760935
197	0xbe5b90e7	-0.21441995
198	0xbe8159f3	-0.25263938
199	0x3e84e677	0.2595708
200	0x3effad1d	0.49936762
201	0x3e9dab0f	0.3079457
202	0x3e618ff8	0.22027576
203	0xbdb5c5c3	-0.08875611
204	0xbe8df12c	-0.27723062
205	0x3f0822df	0.5317821
206	0x3deb5b00	0.11491966
207	0x3ef8b76f	0.4857745
208	0x3e552828	0.208161
209	0x3bd378fd	0.006453632
210	0x3d6a0ced	0.057141233
211	0x3f2325f1	0.6372977
212	0x3d25388e	0.040337138
213	0xbeed713a	-0.46375448
214	0xbdd067f3	-0.10176077
215	0xbf09eda4	-0.53878236
216	0x3ef8c79a	0.48589784
217	0x3f0b10a3	0.5432226
218	0x3db5466b	0.08851322
219	0x3f03865e	0.51376903
220	0xbe419d72	-0.18907717
221	0xbe1f3513	-0.1554759
222	0xbe729120	-0.23688173
223	0xbf18f266	-0.5974487
224	0xbeb2ecc6	-0.3494627
225	0x3e593aed	0.21213885
226	0xbe3aac91	-0.18229891
227	0xbece704f	-0.4032006
228	0x3e8a6364	0.27028954
229	0x3f044701	0.51670843
230	0xbe1d0864	-0.15335232
231	0x3ed7c8ab	0.42145285
232	0x3db8af96	0.09017865
233	0x3c8c61a3	0.0171364
234	0xbe36e3d6	-0.1786035
235	0x3ebef2a4	0.37294495
236	0x3e8620ea	0.26196986
237	0xbf06f5d4	-0.52718854
238	0xbe1d6b33	-0.15372925
239	0xbf10fe6e	-0.5663823
240	0xbecdf93a	-0.40229207
241	0x3c103daa	0.008803764
242	0x3dc68d4a	0.096949175
243	0xbed8b203	-0.42323312
244	0x3ef8acb9	0.48569277
245	0xbe149126	-0.14508495
246	0x3e7d59ab	0.24741237
247	0x3f0ecdfc	0.5578306
248	0x3e6f7c52	0.23387268
249	0x3efe1073	0.49621925
250	0xbc1730d1	-0.009227947
251	0x3f06b924	0.5262625
252	0xbe8b7367	-0.27236483
253	0x3f07e5ae	0.5308484
254	0xbe01efc6	-0.12689123
255	0x3c805d4d	0.01566949

net.0.bias f4 [256]
0	0xbe7e7199	-0.24848022
1	0x3e8c9193	0.27454814
2	0xbe2ed6d1	-0.17074133
3	0x3edd7b2b	0.43258032
4	0x3f112ba8	0.5670724
5	0xbeeb5ab1	-0.4596763
6	0xbdd7ddd8	-0.1054036
7	0xbe112a6a	-0.14176336
8	0xbea15b91	-0.31515172
9	0xbe6e424a	-0.23267475
10	0x3e75ec65	0.24015959
11	0x3ed6b05e	0.41931432
12	0xbcc53fed	-0.024078334
13	0x3e7a469e	0.24441001
14	0x3de9c1d4	0.11413923
15	0x3e8ef029	0.27917603
16	0x3f01f304	0.5076144
17	0x3e95b557	0.29239914
18	0xbec88e9d	-0.39171305
19	0xbe952524	-0.291299
20	0x3dc22827	0.09480315
21	0x3ec6e683	0.3884774
22	0x3ed49717	0.41521522
23	0xbe82af5a	-0.25524408
24	0xbf01709d	-0.5056246
25	0xbe83d0a6	-0.25745124
26	0x3cbbb4a5	0.022913286
27	0x3e7456fa	0.23861304
28	0xbe8443de	-0.2583303
29	0x3f0ff6c7	0.5623593
30	0x3efe731a	0.4969719
31	0xbf16248f	-0.58649534
32	0xbee7cccb	-0.45273432
33	0x3f128cba	0.5724598
34	0xbdce8462	-0.10083844
35	0x3cd1f2ed	0.025628531
36	0x3ec7ed24	0.3904811
37	0x3ed9ebd1	0.42562726
38	0x3ef7f34f	0.48427817
39	0x3e31ab42	0.17350486
40	0xbdb5f5df	-0.08884787
41	0xbeace2e4	-0.33766854
42	0xbed1b480	-0.40958023
43	0x3edc9426	0.43081778
44	0xbe9fa2dd	-0.31178942
45	0x3e11c6d2	0.14236
46	0x3e31306b	0.17303626
47	0xbf0f1ca7	-0.55903095
48	0xbeffbcfe	-0.49948877
49	0x3df861e3	0.121280454
50	0xbf1b847d	-0.60749036
51	0x3d9125a5	0.07087258
52	0xbe1830d5	-0.14862378
53	0xbe98a77a	-0.29815274
54	0x3c70649e	0.0146724265
55	0xbcd2d1c2	-0.025734786
56	0xbedf6f54	-0.43639624
57	0x3dce808d	0.10083113
58	0xbeaad9b0	-0.33369207
59	0xbf13a238	-0.576694
60	0x3e41e105	0.18933494
61	0x3dfdae52	0.123867646
62	0xbdd6d87f	-0.10490512
63	0x3eb98a26	0.3623821
64	0xbef5019c	-0.4785279
65	0xbeffae01	-0.49937442
66	0xbe0e32ee	-0.13886616
67	0xbd9f7ffe	-0.077880844
68	0x3eda4b7d	0.42635718
69	0xbdb4ea62	-0.088337675
70	0xbeaee52a	-0.34159213
71	0x3f18cabf	0.59684366
72	0x3ea011ee	0.3126368
73	0xbe8d748e	-0.27627987
74	0x3ea44c61	0.32089522
75	0xbe80eabb	-0.25179085
76	0xbdd10104	-0.10205272
77	0xbe07e5be	-0.13271233
78	0x3e32ca52	0.17459992
79	0x3e0067b9	0.12539567
80	0x3f13b590	0.5769892
81	0xbe565314	-0.2093013
82	0x3e81baa6	0.25337714
83	0xbee1ce80	-0.4410286
84	0xbd52f902	-0.051507004
85	0x3e610136	0.21973118
86	0x3eed4a7e	0.46345896
87	0x3ddc80ff	0.107667916
88	0x3dba51d7	0.09097641
89	0xbef76cae	-0.48325104
90	0x3ed2b508	0.4115374
91	0xbeb12523	-0.34598646
92	0x3dc781d0	0.09741557
93	0x3ec219e9	0.37910393
94	0xbee8b137	-0.45447704
95	0x3e35c707	0.17751704
96	0x3e28dff9	0.16491689
97	0xbf052081	-0.5200272
98	0x3d0f70d4	0.03501971
99	0xbe1a4cb8	-0.15068328
100	0xbe94a670	-0.29033232
101	0xbeb54387	-0.35403082
102	0xbe88a621	-0.26689246
103	0x3aa17689	0.0012318651
104	0x3ecfdc61	0.40597823
105	0x3e88ca31	0.2671676
106	0xbea64bb9	-0.32479647
107	0x3e4c67e3	0.19961505
108	0x3e75a312	0.23987988
109	0x3edb4f06	0.42833728
110	0xbe079d81	-0.13243677
111	0x3ee41331	0.44545892
112	0xbef86e40	-0.48521614
113	0x3f12b38b	0.5730521
114	0x3e6702f3	0.22559719
115	0x3e65b0bf	0.22430705
116	0x3e521790	0.20516801
117	0xbe49eaa9	-0.19718422
118	0x3eba135c	0.36342895
119	0x3f21c7f9	0.6319576
120	0x3d383bd7	0.044978943
121	0x3d94f74b	0.0727373
122	0xbeb6e3db	-0.35720715
123	0x3eefe328	0.46852994
124	0x3f10c378	0.5654826
125	0xbef0a951	-0.47004178
126	0x3f06bb20	0.5262928
127	0xbeff0742	-0.49810225
128	0xbe8e9186	-0.278454
129	0xbef9b4f9	-0.48770884
130	0xbedb3520	-0.4281397
131	0xbe9b5e55	-0.30345407
132	0xbe41d78c	-0.18929881
133	0x3efe0276	0.49611253
134	0x3e00b37d	0.1256847
135	0x3f105a14	0.5638745
136	0x3e886493	0.26639232
137	0x3eb31ac7	0.34981367
138	0x3ed1e95d	0.40998355
139	0xbdb1ddcc	-0.086848825
140	0x3e8aae24	0.27085984
141	0x3e90a66d	0.28251973
142	0x3ed32108	0.41236138
143	0xbee36fad	-0.4442114
144	0x3e9a32dd	0.3011693
145	0xbd2c99ab	-0.042138737
146	0xbecbda1f	-0.3981485
147	0x3ed88113	0.42285976
148	0xbcb83f55	-0.022491137
149	0x3ea4dd98	0.32200313
150	0x3ebfc63d	0.3745593
151	0x3ee11f0d	0.43969002
152	0xbe7e6eec	-0.24847001
153	0xbea852f2	-0.32875782
154	0xbf1008a2	-0.5626317
155	0xbdf0a209	-0.11749656
156	0xbcac1ee7	-0.02101083
157	0x3edc8e43	0.43077287
158	0x3eb97e87	0.36229345
159	0xbb7dcdeb	-0.0038727473
160	0xbeb78afb	-0.3584822
161	0xbef5bb69	-0.47994545
162	0xbe9e05c1	-0.30863765
163	0xbced316a	-0.028954227
164	0xbe458f94	-0.19293052
165	0x3eeb6f51	0.45983365
166	0x3ee51f32	0.44750363
167	0xbcbf9a69	-0.023389058
168	0x3e8b6e82	0.27232748
169	0x3f0d4409	0.5518194
170	0xbec3cd7c	-0.3824271
171	0xbea99f7f	-0.33129498
172	0x3df975f7	0.12180703
173	0x3e9dacd6	0.30795926
174	0xbe41ab08	-0.189129
175	0xbe5e4ab9	-0.21708192
176	0x3e6d771f	0.23189972
177	0xbd9703fc	-0.07373807
178	0x3f044067	0.5166077
179	0x3efcdc59	0.49386862
180	0x3e9cf7a4	0.30657685
181	0x3ed1c346	0.40969294
182	0x3e3244cb	0.17409055
183	0xbdb508d0	-0.088395715
184	0xbee5219a	-0.44752198
185	0xbebe18bb	-0.37128243
186	0x3f0abbf9	0.54193074
187	0xbf218eed	-0.6310871
188	0x3f0e8587	0.55672497
189	0xbe59a819	-0.2125553
190	0x3f108fce	0.5646943
191	0x3f000e70	0.5002203
192	0xbe8583fe	-0.26077265
193	0xbdd4903a	-0.103790715
194	0xbe1784d3	-0.14796762
195	0x3f044eeb	0.5168292
196	0x3ec30fc4	0.38097966
197	0xbe534907	-0.20633326
198	0x3ef740f1	0.48291734
199	0xbe875af7	-0.26436588
200	0xbc2685e7	-0.010163761
201	0xbd9f5493	-0.07779803
202	0xbf04aacf	-0.51823133
203	0x3d5a7dda	0.053342678
204	0x3d7ca83d	0.061683882
205	0x3eff421e	0.4985513
206	0x3f011705	0.5042575
207	0xbd4826b5	-0.04886504
208	0x3e84de16	0.25950688
209	0xbefd12a4	-0.49428284
210	0xbee51e86	-0.4474985
211	0xbc2bf7b4	-0.010496069
212	0xbc9a5ae7	-0.018842174
213	0xbee290d2	-0.44251114
214	0xbebdb6f0	-0.37053633
215	0xbd8281fc	-0.06372449
216	0x3ecc23d9	0.398711
217	0x3cef728f	0.02922943
218	0xbeabb18c	-0.33533895
219	0x3eca9ec9	0.39574268
220	0xbf07c1c9	-0.5303007
221	0x3e872164	0.26392663
222	0x3f0b4433	0.5440094
223	0xbeb20ca7	-0.34775278
224	0xbeea4f98	-0.4576385
225	0xbc7a9d9c	-0.015296366
226	0x3ebad835	0.36493078
227	0x3ec47951	0.38373807
228	0x3e476800	0.19473267
229	0xbea6e392	-0.32595497
230	0x3f063549	0.52425057
231	0xbe6ff350	-0.2343266
232	0x3eb1937a	0.34682828
233	0xbf073ca2	-0.52826893
234	0xbe9023b3	-0.28152236
235	0xbeb6de85	-0.35716644
236	0x3ecfb5a7	0.40568277
237	0x3efa2a1b	0.4886025
238	0xbef56cd3	-0.4793459
239	0x3e5bc410	0.2146151
240	0x3e84e447	0.25955412
241	0xbe6582b8	-0.22413146
242	0xbdd9eafd	-0.106405236
243	0x3e705d6d	0.23473139
244	0x3e1f5544	0.1555987
245	0xbe1e9127	-0.15485059
246	0xbed023c5	-0.4065229
247	0xbef6b437	-0.48184368
248	0xbf058762	-0.521597
249	0xbecc0d66	-0.39853972
250	0xbe364b97	-0.17802273
251	0x3e0f4d5e	0.13994357
252	0x3d6ee298	0.058321565
253	0x3e92bf62	0.28661638
254	0x3d5390ca	0.051651753
255	0xbe5d3ad8	-0.21604478

net.2.weight f4 [256, 256]
0	0x3ca362aa	0.019944508
1	0x3c5ea09f	0.0135881
2	0x3d183bfd	0.037166584
3	0x3d58dee0	0.052946925
4	0x3d8e6f3f	0.06954812
5	0x3d2b4e34	0.041822627
6	0x3d0f5d76	0.03500124
7	0x3cf3a6fc	0.02974271
8	0x3b46aac2	0.0030314182
9	0x3d06559d	0.03279649
10	0xbbee430f	-0.0072711776
11	0xbd52abc5	-0.051433343
12	0xbd339d02	-0.043850906
13	0x3d4c6778	0.049903363
14	0xbce9f7bc	-0.028560512
15	0x3ce5553f	0.02799475
16	0x3d72c273	0.059267472
17	0x3d094e1d	0.03352176
18	0x3d41eb50	0.047343552
19	0x3cd8435f	0.026399313
20	0x3d3d1016	0.04615792
21	0xbcd42bce	-0.025899794
22	0xbd91a061	-0.07110668
23	0x3cd87211	0.026421579
24	0x3c3a3a34	0.011366416
25	0x3d08e49a	0.033421136
26	0xbd23a532	-0.039952464
27	0xbd10007a	-0.035156704
28	0x3c1f090a	0.009706745
29	0xbcdceaea	-0.026967485
30	0x3d382bc0	0.0449636
31	0xbbcaf03c	-0.006193189
32	0xbd53208a	-0.051544704
33	0xbd28a797	-0.04117545
34	0x3cc0fa61	0.02355689
35	0xbc501fc3	-0.012702885
36	0x3d26825b	0.04065166
37	0x3d54e9e3	0.051980864
38	0x3bac346b	0.005255272
39	0x3ad9801d	0.0016593967
40	0x3d072b18	0.03300008
41	0x3cd82179	0.026383149
42	0x3d4885ca	0.048955716
43	0xbc56ae9a	-0.013103152
44	0xbd246dbd	-0.040143717
45	0xbb0e9b4d	-0.0021760047
46	0x3cc6e86a	0.024280746
47	0xbcbe54e0	-0.02323383
48	0x3d7e5193	0.062089514
49	0xbd964420	-0.073372126
50	0xbd44cded	-0.04804795
51	0x3d22fe9a	0.03979359
52	0xbc08582e	-0.008321805
53	0xbd7a0bcb	-0.061046403
54	0x3d8f5873	0.06999292
55	0xba22c25f	-0.0006208773
56	0x3c18b142	0.009319605
57	0x3d387dfa	0.045042016
58	0x3d1f3021	0.03886426
59	0x3b897303	0.0041946187
60	0xbd0c4536	-0.034245692
61	0x3bef1187	0.0072957906
62	0xbcf581dd	-0.02996915
63	0xbd3fe0c7	-0.046845224
64	0x3b0fe8b9	0.0021958782
65	0x3cc17bb5	0.023618558
66	0x3d2117e1	0.039329413
67	0xbd4102cb	-0.047121804
68	0x3d8c5821	0.06852747
69	0x3d0881ae	0.033326797
70	0xbbd12040	-0.0063820183
71	0x3d813e03	0.06310656
72	0x3d8c1f6c	0.06841931
73	0xbd50a221	-0.05093587
74	0xbb0e0d8d	-0.0021675557
75	0xbd74fb6c	-0.059810087
76	0x3bcf27ed	0.006321898
77	0xbd5d62f7	-0.05404946
78	0x3b962373	0.0045818626
79	0xbd286033	-0.041107368
80	0x3d91becd	0.071164705
81	0xbd29d4a9	-0.041462574
82	0x3bfae391	0.0076565226
83	0xbd2ef574	-0.04271455
84	0x3d12170f	0.03566652
85	0x3d3648b9	0.044502947
86	0xbc760aee	-0.015017254
87	0x3cfc4604	0.030795105
88	0x3d4336fa	0.04765985
89	0x3bcd884a	0.0062723504
90	0xbc373c7f	-0.011183857
91	0xbd766b61	-0.060161
92	0x3d0ef8a5	0.034905095
93	0xbd2a657c	-0.04160069
94	0xbd3435cb	-0.043996613
95	0x3ae3605e	0.0017347445
96	0xbd7f6d59	-0.06236014
97	0x3c06b4b1	0.008221791
98	0xbcb5d7b2	-0.022197578
99	0xbd3d3637	-0.04619428
100	0x3d8f2c2d	0.06990848
101	0xbbac5bfb	-0.0052599884
102	0x3d5682ad	0.052370716
103	0xbc272803	-0.010202411
104	0xbd096acf	-0.033549126
105	0x3d1e6730	0.038672626
106	0xbd5ef39d	-0.054431546
107	0xbcfa705d	-0.030571157
108	0x3cb776ed	0.022395575
109	0x3d71a9ae	0.05899971
110	0xbd4263e6	-0.04745855
111	0xbc2013f5	-0.009770383
112	0x3c2038f3	0.009779203
113	0xbc4f7d37	-0.012664131
114	0x3cc20c6d	0.023687566
115	0xb977570f	-0.00023588187
116	0xbcdd27a3	-0.02699644
117	0x3cadcb9d	0.021215254
118	0x3d3d808d	0.046265174
119	0xbc0c7d96	-0.008574864
120	0x3c3e3abf	0.011610686
121	0xbd50d774	-0.050986722
122	0xbdd8b7a5	-0.105819024
123	0x3d4f7db7	0.050657
124	0xbd1c853a	-0.038212992
125	0x3cd997cf	0.026561646
126	0xbcb91a32	-0.022595499
127	0xbe031159	-0.12799586
128	0x3d9743f5	0.07386009
129	0xbcc93ff5	-0.02456663
130	0x3c777a2c	0.015104812
131	0xbb9b89a3	-0.004746632
132	0x3cd87b08	0.026425853
133	0x3d73e247	0.059541967
134	0xbd139566	-0.03603115
135	0xbd3715a1	-0.04469836
136	0xbcfad2ce	-0.030618098
137	0xbd282697	-0.041052427
138	0x3d1e9d7f	0.03872442
139	0xbcbb9966	-0.022900295
140	0xbd3ee2e7	-0.04660311
141	0x3d1a66e1	0.03769577
142	0x3c11e544	0.008904759
143	0xbd4b2f1b	-0.04960547
144	0x3d09e3e6	0.033664607
145	0xbb8cfadc	-0.0043023657
146	0x3c455c68	0.012045957
147	0x3c29a1f4	0.010353554
148	0xbd27f2d8	-0.04100308
149	0x3d4b752a	0.049672283
150	0xbd42f07c	-0.047592625
151	0x3d6797d3	0.056541275
152	0xbcb7a05d	-0.022415334
153	0xbc5b676e	-0.013391359
154	0xbb86d840	-0.0041151345
155	0x3d8ec6ed	0.06971536
156	0xbca75e2e	-0.02043065
157	0x3d5a4408	0.053287536
158	0xbd4a9731	-0.049460594
159	0xbbb61045	-0.0055561387
160	0xbd7b25df	-0.061315414
161	0x3cd707c4	0.02624882
162	0xbc5d1c51	-0.013495521
163	0xbc743df9	-0.014907354
164	0xbcb7bfdc	-0.022430353
165	0x3d2d6732	0.042334743
166	0xbbbf9969	-0.0058471453
167	0xbcda2287	-0.026627792
168	0xbb6abc6e	-0.003581788
169	0xbd225b68	-0.039637953
170	0xbd260f2a	-0.040541805
171	0xbdd882ce	-0.10571824
172	0x3d404f28	0.04695049
173	0xbb5f96ee	-0.003411706
174	0x3c2f98a7	0.0107175475
175	0x3c5b7196	0.01339378
176	0x3d39e00b	0.04537968
177	0x3d10243b	0.035190802
178	0x3cf8479e	0.030307587
179	0x3cfbdfdb	0.030746391
180	0x3abbc0c0	0.0014324412
181	0xba3576ff	-0.0006922334
182	0xbbff6fac	-0.0077952947
183	0x3c85d666	0.016337585
184	0xbd4ab623	-0.049490105
185	0x3d204a1d	0.03913318
186	0x3c790d1a	0.015200878
187	0xbd6b3285	-0.057421226
188	0xbd1458e0	-0.03621757
189	0x3da3fab7	0.080068044
190	0xbc967c8c	-0.018369935
191	0x3d145bbc	0.036220297
192	0x3d5f8b73	0.05457635
193	0x3d18876f	0.037238535
194	0xbcc7d87d	-0.024395222
195	0x3cd569a1	0.026051344
196	0x3d1d6954	0.038430527
197	0xbdd6902a	-0.10476716
198	0xbd970d7e	-0.0737562
199	0x3cd59c06	0.026075374
200	0xbcf3b2a3	-0.029748267
201	0xbd9a41eb	-0.07532104
202	0xbb48306a	-0.0030546435
203	0xbd38ec23	-0.045147073
204	0xbd39750c	-0.04527764
205	0x3d600eee	0.054701738
206	0xbd1430da	-0.0361794
207	0xbc3acad9	-0.011400902
208	0xbcfebd43	-0.031096106
209	0x3d96333d	0.07333992
210	0xbcf9d373	-0.030496335
211	0xbb9f8a66	-0.0048687933
212	0xbd2e5844	-0.042564645
213	0xba43ec90	-0.000747391
214	0x3c94386c	0.01809331
215	0xbd64365a	-0.055715896
216	0xbc13176d	-0.008977753
217	0xbd282477	-0.0410504
218	0x3d99fe7f	0.075192444
219	0xbc046a2e	-0.008081956
220	0xbd4e66ed	-0.050391126
221	0x3cb1d020	0.021705687
222	0x3d64c6ba	0.055853583
223	0xbc57e1d4	-0.0131764
224	0x3d50484a	0.05085019
225	0xbd390287	-0.045168426
226	0x3c50ba54	0.012739737
227	0xbb9fad35	-0.004872943
228	0x3cced5af	0.025248377
229	0xbceb09c9	-0.02869119
230	0x3ca743e8	0.020418122
231	0x3d939500	0.07206154
232	0xbcdc4731	-0.026889415
233	0xbc6ac713	-0.01432969
234	0x3c56e6bd	0.013116536
235	0x3ca2f355	0.01989142
236	0x3d00e440	0.031467676
237	0xbbbef11c	-0.0058270823
238	0xbc157e80	-0.009124398
239	0x3d5f818a	0.054566897
240	0x3ce35f95	0.027755538
241	0x3d243063	0.040085208
242	0xbcdb288e	-0.026752736
243	0x3d48379c	0.04888116
244	0x3af8a2af	0.0018969382
245	0xbd952e3f	-0.07284211
246	0x3b372558	0.0027945843
247	0xbc91ed4c	-0.017813347
248	0xbbb6aff8	-0.0055751763
249	0xbd100a9c	-0.035166368
250	0x3d41600a	0.04721073
251	0xbb973884	-0.0046148915
252	0xbd62a02d	-0.055328537
253	0xbc9605ce	-0.018313315
254	0x3ba5195e	0.0050384244
255	0xbcbff30f	-0.023431329

net.2.bias f4 [256]
0	0x3ceb8dc0	0.028754115
1	0x3d707a4e	0.05871039
2	0xbd037e5f	-0.03210294
3	0xbca32223	-0.019913739
4	0xbc9cf200	-0.019158363
5	0x3cbf5648	0.023356572
6	0x3c82faff	0.015988825
7	0x3d0dfad9	0.034663055
8	0xbc3a99dc	-0.011389222
9	0xbca85404	-0.020547874
10	0x3d8669e5	0.065631665
11	0xbc99e16d	-0.01878425
12	0x3ca0abd7	0.01961319
13	0xbb754b4b	-0.0037428911
14	0xbcb5e7a2	-0.022205178
15	0x3d519b43	0.05117346
16	0x3d935c26	0.0719531
17	0xbd56c0d6	-0.052429996
18	0x3d50232c	0.050814793
19	0xbc155681	-0.009114862
20	0x3bd21bb8	0.0064119957
21	0x3d398c30	0.04529971
22	0x3dd3f70a	0.10349853
23	0xbbb43b0e	-0.005500204
24	0xbd929b7c	-0.071585625
25	0x3aadc297	0.0013256845
26	0xbc111516	-0.008855125
27	0x3c609996	0.013708493
28	0xbd01b63f	-0.031667944
29	0x3d9878a4	0.074448854
30	0x3d8b50b8	0.06802505
31	0x3c560fe5	0.013065313
32	0x3d7cf235	0.061754424
33	0x3c878896	0.016544621
34	0xbce82119	-0.028336095
35	0xbd5a88c3	-0.053353082
36	0xbc8bf14c	-0.017082833
37	0x3b8bdef4	0.0042685214
38	0xbd7e2425	-0.06204619
39	0x3d9df47c	0.07712647
40	0x3d1330bf	0.03593516
41	0xbc4695d8	-0.0121206865
42	0xbce42d15	-0.027853528
43	0xbd5133a3	-0.051074635
44	0x3d36e824	0.04465498
45	0xbc7bf463	-0.015378091
46	0x3c1e755b	0.009671534
47	0xbb50929f	-0.0031825674
48	0x3d375ddb	0.044767242
49	0xbc2c483d	-0.01051527
50	0xbd5976dd	-0.053091872
51	0xbac69953	-0.0015151895
52	0x3d876054	0.0661017
53	0xbd4a6e3f	-0.049421545
54	0xbc842c13	-0.016134297
55	0xbd17e4a4	-0.037083283
56	0x3d2d91f2	0.042375512
57	0x3c977e76	0.018492918
58	0xbc73756c	-0.0148595385
59	0xbd45022a	-0.048097767
60	0xbc2e1e81	-0.01062739
61	0x3d01e147	0.03170898
62	0x3d551e69	0.052030955
63	0x3ca2fc36	0.019895654
64	0x3aa2ff24	0.0012435657
65	0x3acb8001	0.0015525819
66	0x3bcf9fa0	0.0063361675
67	0xbd972108	-0.07379347
68	0x3d795e68	0.06088105
69	0x3d9b7f05	0.075925864
70	0xbc80c844	-0.015720494
71	0x3d93e844	0.072220355
72	0x3d8b7b40	0.068106174
73	0xbc11ab1b	-0.008890892
74	0x3d31f1f5	0.04344364
75	0x3d18567f	0.037191864
76	0xbd728364	-0.059207335
77	0xbba2d5ce	-0.004969335
78	0x3c4cfe43	0.012511793
79	0x3c800ea1	0.015631976
80	0xbd30fb32	-0.04320831
81	0xbccf50dc	-0.025307111
82	0x3ba07543	0.004896791
83	0x3ce6527c	0.028115503
84	0x3d1fdd00	0.03902912
85	0xbd4863e4	-0.048923388
86	0xbd263fef	-0.040588316
87	0xbbd9ced6	-0.006646971
88	0xbc54b475	-0.012982477
89	0x3d136480	0.035984516
90	0x3d8e6216	0.06952302
91	0x3bb2a619	0.0054519293
92	0xbc0f5866	-0.008749103
93	0xbcaf9e06	-0.021437656
94	0x3c8218cb	0.015880963
95	0xbd1210b1	-0.03566045
96	0xbc446567	-0.011987067
97	0x3c271d5e	0.010199873
98	0xbd41eaa6	-0.04734292
99	0xba618901	-0.0008603484
100	0x3d588f44	0.052871004
101	0x3bf8dc37	0.007594611
102	0x3ca21570	0.019785613
103	0xbdbe218c	-0.09283742
104	0x3d9af8e5	0.07567004
105	0xbba87170	-0.005140476
106	0xbd324610	-0.043523848
107	0x3d7ab542	0.061208017
108	0x3c4b828b	0.012421261
109	0x3d77b24c	0.06047277
110	0x3d718ba5	0.058971066
111	0xbc2f6b39	-0.010706716
112	0xbca07742	-0.019588117
113	0x3d120324	0.035647526
114	0x3d7bc42f	0.061466392
115	0xbbb9254f	-0.0056501995
116	0x3dac9bab	0.08428129
117	0xbd54bc74	-0.051937535
118	0xbce94208	-0.028473869
119	0xbd7f3fe3	-0.062316786
120	0x3c8b2faa	0.016990501
121	0x3d4e8452	0.05041916
122	0x3d86cd34	0.06582108
123	0x3cc47b78	0.023984656
124	0x3ae81495	0.0017706329
125	0xbcf94e4a	-0.030432839
126	0x3d6f695f	0.0584501
127	0x3d465e3c	0.048429713
128	0x3d0dcf1d	0.034621347
129	0x3d353582	0.044240482
130	0xbcf277dc	-0.029598169
131	0xbc23eb97	-0.010004899
132	0x3d0fd6c4	0.035116926
133	0x3d75a9ca	0.059976377
134	0x3d1da99c	0.03849183
135	0x3c2a6b4e	0.01040156
136	0xbc9452a7	-0.018105818
137	0xbd73722a	-0.059435047
138	0xbcad3cc5	-0.021147141
139	0x3d9afdf5	0.0756797
140	0x3dc84a28	0.09779769
141	0x3d06c805	0.032905597
142	0xbd39b67b	-0.045340043
143	0x3d3068a6	0.04306855
144	0x3b9103e5	0.004425513
145	0x3aa7c9a0	0.0012801178
146	0x3d6bd534	0.057576373
147	0x3c74980c	0.014928829
148	0xbc3c9c55	-0.011511882
149	0xbd1c75d8	-0.038198322
150	0x3d7de260	0.061983466
151	0xbd8bbd78	-0.06823248
152	0x3cb5e92d	0.022205913
153	0xbc017220	-0.007900745
154	0x3d59cd16	0.0531741
155	0x3dae4088	0.08508402
156	0xbb2e2304	-0.0026571164
157	0x3d29ec22	0.04148496
158	0x3daa148d	0.08304701
159	0x3d0473dc	0.032337055
160	0xbd605ffa	-0.05477903
161	0xbc411ce5	-0.011786674
162	0x3d91ef3c	0.071257085
163	0xbd8c6f96	-0.06857221
164	0xbc96902a	-0.01837929
165	0xbd0de39d	-0.034640897
166	0x3ce850aa	0.028358776
167	0xbd80b409	-0.06284339
168	0x3d2f576b	0.042807978
169	0xbcfd046c	-0.030885898
170	0x3d86d800	0.065841675
171	0xbc2c792b	-0.010526936
172	0xbce4f25e	-0.0279476
173	0x3d561f44	0.05227591
174	0x3cb7b21a	0.022423793
175	0x3d4f701d	0.05064403
176	0x3d167aa4	0.036738053
177	0x3cb3f61e	0.021967944
178	0x3d062740	0.032752275
179	0x3dab8344	0.08374646
180	0xbcc47710	-0.023982555
181	0x3bf0d140	0.0073491633
182	0x3d8932f3	0.06699171
183	0x3d5355b8	0.05159542
184	0x3c56a2af	0.01310031
185	0x3c639713	0.013890999
186	0x3d8cdecd	0.068784334
187	0x3d450d5c	0.048108444
188	0xbc886046	-0.01664747
189	0x395cdf8a	0.0002106411
190	0xbc929927	-0.017895294
191	0xbcffbdb8	-0.031218395
192	0x3d115fff	0.03549194
193	0xbd1c9420	-0.0382272
194	0xbd74a470	-0.059727132
195	0x3c2080fd	0.009796378
196	0xbcfa3f18	-0.030547664
197	0xbcf44fb9	-0.029823171
198	0x3ce40c96	0.027838033
199	0x3cebf199	0.028801726
200	0xbcd6c6be	-0.026217815
201	0xbd307de5	-0.043088812
202	0xbc09faf8	-0.008421652
203	0xbc8245fc	-0.015902512
204	0xbd3b6fda	-0.045760967
205	0xbd8da998	-0.06917113
206	0xbd5461df	-0.05185115
207	0xbc7399f8	-0.014868252
208	0x3c2359fc	0.009970184
209	0x3c45ec7b	0.012080307
210	0xbc1ff83d	-0.009763774
211	0x3d4b7094	0.04966791
212	0x3d6f4636	0.058416568
213	0x3c9be738	0.019031152
214	0x3c6387b3	0.013887334
215	0xbd4cd460	-0.050007224
216	0x3d4b9b16	0.04970845
217	0x3bce63a9	0.0062985015
218	0xbd4570a5	-0.04820313
219	0xbc9e0eff	-0.01929426
220	0xbc51dba5	-0.012808715
221	0x3d52cbe5	0.05146398
222	0xbcb6c41f	-0.022310315
223	0xbcd9bf8d	-0.026580596
224	0x3d48dc30	0.049038112
225	0x3d8a9b01	0.06767846
226	0x3c2c2312	0.010506408
227	0x3d2d51be	0.042314284
228	0x3d934f69	0.07192881
229	0x3dadba43	0.08482792
230	0xbd366355	-0.044528324
231	0x3d46c425	0.0485269
232	0xbd06ab9c	-0.032878503
233	0x3c0b2065	0.00849161
234	0x3cb8e608	0.022570625
235	0x3d16b56d	0.036794115
236	0xbc80bc91	-0.015714915
237	0xbd453f48	-0.048156053
238	0x3d26ba7e	0.040705197
239	0x3c853a79	0.016263233
240	0x3d9451fe	0.07242201
241	0x3d7d3f53	0.06182797
242	0xbd708234	-0.05871792
243	0xbd714077	-0.05889937
244	0xbcee6fa6	-0.029105972
245	0x3b13564a	0.0022481852
246	0x3d6c90a2	0.05775512
247	0xbd8fff93	-0.07031169
248	0xbd188eb4	-0.037245467
249	0x3b213d92	0.002460335
250	0xbb5a61e0	-0.0033322498
251	0x3da6f4c5	0.08152155
252	0xbbda8fef	-0.0066699903
253	0x3cc53abe	0.024075862
254	0xbcb5326d	-0.022118771
255	0x3c71e03d	0.014762935

net.4.weight f4 [5, 256]
0	0xbbc0c018	-0.0058822744
1	0x3d0e58b0	0.034752548
2	0xbd6af420	-0.057361722
3	0x3d177492	0.036976404
4	0xbd781cc9	-0.060574327
5	0x3cf3efe8	0.029777482
6	0xbc58a19c	-0.013222124
7	0xbd10e00c	-0.035369918
8	0xbd92b831	-0.07164038
9	0x3cd94eb8	0.026526794
10	0xbcaafbb5	-0.020871976
11	0x3db288da	0.087175086
12	0x3d970a42	0.073750034
13	0x3d886ddf	0.06661581
14	0xbd02dc85	-0.031948585
15	0x3dbdb331	0.09262694
16	0xbdbab66c	-0.091168255
17	0xba724027	-0.0009241127
18	0xbda54bca	-0.08071096
19	0xbc719e47	-0.014747209
20	0xbd8f5dcd	-0.07000313
21	0xbd9bceb0	-0.07607782
22	0xbbe5be96	-0.007011245
23	0xbdc4e809	-0.0961457
24	0xbc65920d	-0.014011872
25	0xbc4e844b	-0.012604783
26	0x3dbb9e60	0.09161067
27	0x3c9f4023	0.019439762
28	0xba657f36	-0.00087546126
29	0x3d3ce967	0.046121027
30	0xbd92d49c	-0.07169458
31	0x3b0404f0	0.0020144545
32	0xbc62a259	-0.013832652
33	0xbda0b47c	-0.07846925
34	0xbda1b25e	-0.07895349
35	0xbdc60d67	-0.09670525
36	0x3c385059	0.011249625
37	0x3d9130b1	0.07089365
38	0x3cfa6536	0.03056584
39	0x3ce0e286	0.027451765
40	0xbd33d51b	-0.043904405
41	0x3d72a9a4	0.059243813
42	0x3d10b2fd	0.035326947
43	0x3dd5a9f4	0.104328066
44	0xbd49674d	-0.04917078
45	0x3d2c3e0a	0.042051353
46	0x3d658aa8	0.056040436
47	0x3d80dd07	0.062921576
48	0x3c1bacca	0.009501645
49	0xbd79a07c	-0.060944065
50	0xbcfce81b	-0.030872395
51	0xbab7df45	-0.0014028331
52	0xbd87a976	-0.06624119
53	0x3d1298b4	0.03579016
54	0xbbf09e12	-0.007343062
55	0x3d22beb7	0.03973266
56	0x3db822ce	0.089910135
57	0x3d91de94	0.071225315
58	0x3dbe330d	0.09287081
59	0x3d7c22ac	0.061556503
60	0x3d3c5aae	0.045984916
61	0x3a8dcf1d	0.0010819171
62	0x3d3962b4	0.045260146
63	0xbcfdf9ae	-0.031002846
64	0x3c173143	0.0092280535
65	0xbc109e0e	-0.008826746
66	0x3abe4053	0.001451502
67	0x3daed02c	0.085357994
68	0x3d942a72	0.07234658
69	0xbd8e2b29	-0.06941826
70	0x3da98bb5	0.082786
71	0xbd457870	-0.04821056
72	0xbc9e5f6b	-0.019332608
73	0x3cdb4761	0.026767435
74	0x3d18b10c	0.03727822
75	0x3d5d2d12	0.05399806
76	0xbca24943	-0.019810325
77	0xbd0b1dbd	-0.033963908
78	0x3c82bbbd	0.015958661
79	0xbc3d3be7	-0.011549926
80	0x3d16d79e	0.036826722
81	0xbd9dc7c5	-0.07704119
82	0xbd029131	-0.031876747
83	0x3d2d847a	0.042362668
84	0xbd9aa508	-0.075510085
85	0xbcdacbd5	-0.026708523
86	0x3c83eb98	0.01610355
87	0x3cf631f4	0.030053116
88	0xbc4367bd	-0.011926589
89	0xbd15c61e	-0.036565892
90	0xbd73f249	-0.059557233
91	0xba9132b5	-0.0011077734
92	0x3d8867dd	0.06660435
93	0xbd341172	-0.04396195
94	0xbda01cd6	-0.07818
95	0x3d33ee54	0.04392846
96	0xbd3be068	-0.045868307
97	0x3cc1d0d5	0.02365915
98	0xbd083f61	-0.033263568
99	0x3d03dc0f	0.032192286
100	0xbdac8e8c	-0.08425626
101	0xbb9f267e	-0.0048568835
102	0x3d01cc1c	0.031688794
103	0xbd21c661	-0.03949583
104	0xbd3bd03a	-0.045852877
105	0x3cdc7037	0.026908977
106	0x3c1fbdd2	0.0097498465
107	0x3d817ed7	0.06323021
108	0x3daa085c	0.08302376
109	0x3b255be0	0.0025231764
110	0x3cb862c4	0.022508033
111	0x3d69101a	0.05690012
112	0xbd4ea63e	-0.05045151
113	0x3c1e9298	0.009678505
114	0x3dbde408	0.09272009
115	0x3db318bb	0.08744951
116	0x3b34cf66	0.002758944
117	0x3dbff1ad	0.09372268
118	0xbd951d1f	-0.07280945
119	0xbcc495f6	-0.023997288
120	0x3d5cadcd	0.053876687
121	0x3dc845e2	0.09778954
122	0x3c1265c4	0.008935396
123	0xbdb2a361	-0.08722568
124	0xbae9fc5b	-0.0017851697
125	0x3cd01def	0.025404898
126	0xbd295bfe	-0.041347496
127	0x3dae8cf9	0.08522982
128	0x3c06da98	0.008230828
129	0x3d31780d	0.04332738
130	0xbc32b2dd	-0.010906902
131	0xbd804aa9	-0.0626424
132	0x3ccc4036	0.024932962
133	0xbd51d060	-0.051224113
134	0x3d443aaf	0.047907528
135	0x3ce438f9	0.027859198
136	0xbcfe894c	-0.031071328
137	0xbd4d6383	-0.05014373
138	0x3d929362	0.07157017
139	0x3ba03f5f	0.004890367
140	0x3be2186b	0.0068998835
141	0x3ce35639	0.027751075
142	0xbd339ade	-0.043848865
143	0x3c253bbe	0.010085044
144	0x3d18ed8b	0.037335914
145	0x3d3598eb	0.044335287
146	0xbc478af4	-0.012179125
147	0xbc8d99eb	-0.017285308
148	0x3d59b76c	0.05315344
149	0x3b8ee920	0.0043612868
150	0xbd64ef95	-0.055892546
151	0x3d5e9ca8	0.054348618
152	0xbd1f2b63	-0.038859736
153	0x3d5a5e6e	0.05331271
154	0xbd0dc350	-0.034610093
155	0x3c74b07e	0.014934657
156	0xbd854ab0	-0.06508386
157	0x3cfe9cd0	0.031080633
158	0xbd66f157	-0.056382503
159	0xbd4e970b	-0.050437015
160	0x3c768470	0.015046224
161	0xbd2ad983	-0.04171134
162	0xbd57f7a6	-0.05272641
163	0xbca54309	-0.020173566
164	0x3d00b788	0.03142503
165	0x3cc87aa2	0.024472538
166	0x3cc17453	0.023615038
167	0xbd180fba	-0.037124373
168	0xbd837f31	-0.06420744
169	0xbc50d06f	-0.012745007
170	0xbc8c091f	-0.017094193
171	0xbbd5851c	-0.006516112
172	0xbc7dba18	-0.015486263
173	0x3db4a217	0.08819979
174	0x3c80c9ca	0.01572122
175	0x3d281090	0.04103142
176	0xbd9f50b4	-0.07779065
177	0x3c906a78	0.017628893
178	0x3bff3f9c	0.0077895653
179	0xbd988608	-0.074474394
180	0xbc54748b	-0.012967239
181	0xbd0aeccc	-0.033917233
182	0xbda4a393	-0.08039012
183	0xbd195032	-0.037429996
184	0x3d42d613	0.04756744
185	0xbd979d69	-0.074030705
186	0xbdabb199	-0.083834834
187	0xbd92c196	-0.0716583
188	0x3da9c608	0.082897246
189	0xbda9a4b5	-0.082833685
190	0xbd7c9c64	-0.061672583
191	0x3d5cd6ff	0.053915974
192	0x3c2e44d1	0.010636524
193	0x3d0a767c	0.0338044
194	0xbd206b42	-0.03916479
195	0x3ccece56	0.025244873
196	0x3cdea8c0	0.027180076
197	0xbd4b76fe	-0.049674027
198	0x3cc01591	0.023447784
199	0x3c7276c3	0.014798823
200	0x3d878281	0.066166885
201	0x3d5b51dd	0.053544868
202	0x3ca91e2b	0.020644268
203	0x3c59a550	0.0132840425
204	0x3d7b29e2	0.06131924
205	0x3db957b4	0.09049931
206	0xbcd82b7a	-0.026387919
207	0xbc540683	-0.012941006
208	0x3da765bd	0.08173702
209	0xbd801d73	-0.06255617
210	0x3d5765ed	0.05258744
211	0xbcd85d00	-0.026411533
212	0xbd20b5d9	-0.039235923
213	0x3c25fecd	0.01013155
214	0xbda33504	-0.07969096
215	0x3c9c47e4	0.019077249
216	0xbd91e6c1	-0.07124091
217	0xbdb83a1d	-0.08995459
218	0x3d448c7d	0.047985543
219	0x3d66ddc8	0.05636385
220	0xbd91d33e	-0.071203694
221	0xbdafbb01	-0.0858059
222	0x3d15a06a	0.036529936
223	0xbc293837	-0.010328344
224	0xbc5eb910	-0.013593927
225	0x3cec6eae	0.02886137
226	0xbd63c3d3	-0.055606674
227	0x3ba8b9c7	0.0051490995
228	0x3d28bcd7	0.041195717
229	0xbc2364d4	-0.00997277
230	0x3d229292	0.03969056
231	0x3d33db22	0.043910153
232	0x3db919f7	0.090381555
233	0xbd3b1d25	-0.04568209
234	0x3d81bfe7	0.063354306
235	0x3bba70f0	0.0056897327
236	0xbc002f9a	-0.007823849
237	0xbd3ed684	-0.046591297
238	0x3d28b7f3	0.041191053
239	0xbd548039	-0.051880095
240	0x3d272151	0.040803257
241	0xbcf1563b	-0.029460063
242	0x3dbdbaee	0.0926417
243	0x3d078d8e	0.03309398
244	0xbb018615	-0.0019763757
245	0x3da89f5b	0.0823352
246	0xbd93105a	-0.07180853
247	0x3d091313	0.033465456
248	0x3d6bd70b	0.057578128
249	0xbce86557	-0.028368635
250	0xbd5f6820	-0.05454266
251	0xbd03afa7	-0.032149937
252	0xbca446f2	-0.02005336
253	0x3d4f3184	0.05058433
254	0xbc9d2a33	-0.019185161
255	0x3d1838f0	0.037163675

net.4.bias f4 [5]
0	0x3c5506ef	0.013002141
1	0xbc816fbf	-0.015800355
2	0xbcb717c8	-0.022350207
3	0xbd1d2fc2	-0.038375624
4	0xbbb1d01e	-0.005426421
