Homework2/bc_policy_k1.pt (torch, 271505 bytes, 5 tensors)

net.0.weight f4 [256, 3]
000000 bb 1b 09 bf fd 3a e7 3e ee dc a7 be df 96 a9 bc
       -0.5355794 0.45162192 -0.32785743 -0.020701824
000010 c6 c6 70 3e c3 0f 86 3e 86 74 bf be 53 43 a8 3e
       0.23513326 0.261839 -0.37393588 0.32863864
000020 69 80 41 be f6 e0 da be a2 c0 01 3f 49 f6 b6 be
       -0.18896641 -0.42749757 0.5068456 -0.35734776
000030 fb ad bf bd 27 1a 88 be 0d 3f 21 bd 9f 8a 03 be
       -0.09359356 -0.26582453 -0.03936677 -0.12845849
000040 45 50 99 be 51 9c 57 bd 6c 2f 8d 3e b0 f9 b2 3d
       -0.29944053 -0.05263931 0.27575243 0.0873903
000050 c7 b8 e7 be 66 f7 b2 bd 20 2b 78 3e 5e 1b 59 3e
       -0.4525816 -0.08738594 0.24235201 0.21201846
000060 a0 32 a4 3e 71 b2 8e 3e dc 70 f2 3d cf 9f d4 be
       0.32069874 0.27870515 0.118379325 -0.41528174
000070 bd 76 93 be 84 74 98 3e 0e 23 94 be af a7 a5 3e
       -0.28801528 0.29776394 -0.28932995 0.32354495
000080 b2 87 b4 3e a6 b2 1f bd 70 6f fc 3d 16 fb 05 be
       0.35259777 -0.03898873 0.123259425 -0.13084063
000090 99 fc 8e 3e d7 a6 ac be df ba 07 3e 12 27 34 3e
       0.27927092 -0.3372104 0.1325488 0.17593029
0000a0 b3 f2 c1 be f9 64 a7 be 14 43 3a be a4 b6 f5 be
       -0.37880477 -0.32694224 -0.18189651 -0.47990906
0000b0 da 6d c2 3d 96 b9 fe 3c d7 3c 73 bd 93 bd c9 3e
       0.09493609 0.031094354 -0.059384193 0.39402446
0000c0 36 50 04 bf b5 87 b1 3e e1 e8 08 bf 84 e6 5b 3e
       -0.5168489 0.3467385 -0.53480345 0.21474653
0000d0 79 94 ee bd ba dc ed be 52 6d 96 3d 72 c7 cb be
       -0.11649413 -0.46457464 0.0734507 -0.39800602
0000e0 d4 a0 18 bd c5 a3 da 3e 90 f8 02 bf 54 b9 7f be
       -0.037262753 0.4270307 -0.51160526 -0.24973041
0000f0 94 1a 11 3e f5 a2 ac bd 95 62 ca be c4 0e bb be
       0.14170295 -0.08429519 -0.39528337 -0.36534703
000100 a6 2c 31 be cb cc 44 bb 4f 87 b0 be 8c 7e 07 3e
       -0.17302188 -0.0030029293 -0.34478232 0.13231868
000110 66 f7 0e 3f fd d8 10 3f 45 b3 8f bd be 4f e9 bd
       0.5584625 0.565811 -0.07016615 -0.11392163
000120 04 b7 21 3d ed a0 c5 bd 8f 70 e6 be 2c cc 11 bf
       0.039481178 -0.09649835 -0.4500775 -0.56952167
000130 66 18 09 3c 72 91 e6 be 12 1b 1e 3f e7 3c 1e be
       0.008367633 -0.4503284 0.61760056 -0.1545292
000140 90 1f 09 be 3f d6 b1 be 8f 9a 1a be 10 a2 ac 3e
       -0.13390946 -0.3473377 -0.15098022 0.33717394
000150 98 2a a8 3e dc a4 c1 be 33 f5 09 3f 9f f7 46 be
       0.32844996 -0.3782109 0.5388977 -0.19430397
000160 24 00 c1 3e de f6 ed 3e ac c2 cd be 54 ae 46 bd
       0.3769542 0.46477407 -0.40187585 -0.048506096
000170 30 bc ce bd 6c dd 44 be 4a b9 e6 3d 00 86 d3 3e
       -0.10094488 -0.1922509 0.1126581 0.4131317
000180 a9 14 1d 3e 01 41 27 be d4 fe cd 3e 3a 53 cb be
       0.15339912 -0.16333391 0.4023348 -0.39711934
000190 99 4c db 3e bb eb c9 be d8 c9 00 be 10 16 10 3f
       0.42831877 -0.3943766 -0.12576997 0.56283665
0001a0 e6 ae c3 be 38 3d 81 be a1 59 d8 bd 68 6a 06 bf
       -0.38219374 -0.2524202 -0.1056397 -0.52506113
0001b0 60 3e 8c bc 28 c3 07 bf 1b eb 68 be da b2 9a 3d
       -0.017119586 -0.5303216 -0.22745936 0.075536445
0001c0 e0 27 aa 3e ce 59 bd bd a5 cf 83 3e cc 13 e7 be
       0.33233547 -0.092456445 0.25744358 -0.4513229
0001d0 85 10 6f 3e 98 ae ed bd 98 2d 5d be 6b 16 95 3e
       0.23346145 -0.11605567 -0.21599424 0.29118666
0001e0 7c 9c 57 bd 82 65 00 3f 3e 5d 53 3e b7 78 15 3f
       -0.05263947 0.5015489 0.20641038 0.5838732
0001f0 dc 96 fc be bd 34 e0 3d b8 1f a1 3e f9 19 04 bf
       -0.49333847 0.10947559 0.31469512 -0.5160213
000200 70 5b a4 be cc eb 77 3e 30 16 e4 3c 43 7e d5 bd
       -0.3210101 0.24211043 0.027842611 -0.10424473
000210 79 46 65 3e 7c 4c 27 be 2e ac eb bc 84 b9 af be
       0.22390164 -0.1633777 -0.028768625 -0.34321225
000220 97 14 f2 3e ad f2 b3 3d 20 e5 72 be c0 36 fa be
       0.47281334 0.08786521 -0.23720217 -0.48869896
000230 03 bc 31 3e 16 7b 2b bd e2 9d 02 3f 1f da 91 be
       0.17356877 -0.04186543 0.5102216 -0.28486726
000240 48 80 13 3f 28 ab c0 3e 6f b5 b9 3e 6d 08 98 bd
       0.57617617 0.37630582 0.36271235 -0.07423482
000250 4d ea 8b 3e d5 3d 91 bd 4c 12 0a 3d 14 ff eb be
       0.27327195 -0.07091872 0.033708856 -0.46093047
000260 d7 9c 1c 3e 20 53 ee be c6 d2 66 be fb 5e 9f 3e
       0.15294205 -0.46547794 -0.22541341 0.31127152
000270 50 09 05 bd cf c7 c0 be 95 25 94 be eb 5d 20 be
       -0.032479584 -0.37652442 -0.28934923 -0.15660827
000280 36 16 02 3f f1 d8 e9 be b4 6d 95 3e d7 f9 16 3e
       0.5081514 -0.45673326 0.2918526 0.14743744
000290 71 64 f4 bd 59 b5 ce 3e 6f d3 47 3e 30 b0 22 3e
       -0.1193322 0.40372732 0.1951425 0.15887523
0002a0 55 4b b1 3c 13 94 90 be 90 e0 41 be e2 cb 0f 3f
       0.021642366 -0.28237972 -0.1893332 0.56170475
0002b0 52 2a 24 be a6 30 66 3e f2 b5 36 be ed 4d 04 be
       -0.16031769 0.22479495 -0.17842844 -0.12920351
0002c0 50 8e 06 bf a1 13 23 bf 4d 9c 31 3e 41 07 dd 3c
       -0.525609 -0.63701826 0.1734478 0.026980998
0002d0 be 25 66 3e 00 57 1e be c0 33 f8 3e 73 98 10 3f
       0.22475335 -0.15462875 0.48476982 0.5648262
0002e0 2e 8d b7 be 35 90 7c 3d a8 5c f5 be d4 d3 c3 3d
       -0.358499 0.061660964 -0.47922254 0.095618874
0002f0 f3 12 83 3d 71 cc d9 be 8f 46 90 3c c2 7c af 3c
       0.06400099 -0.4253879 0.01761177 0.021421794
000300 a1 89 5e 3e 9c 9b 04 bf 35 e9 75 bd 9b c8 a1 be
       0.21732189 -0.5179994 -0.060036857 -0.31598362
000310 ec 55 4a be 03 c0 b1 3e 57 05 97 be e6 82 c3 3d
       -0.19759339 0.34716806 -0.2949626 0.09546451
000320 46 0d 00 bf 7a fb 0e 3e 16 82 88 bd e9 6e d5 3e
       -0.50020254 0.13963118 -0.06665437 0.4168618
000330 d9 e4 0d 3f 67 a3 04 3d 3a 9a f2 be 85 20 fd 3e
       0.5542732 0.032382395 -0.4738329 0.49438873
000340 93 21 8e be d5 7c 6c bb 6f 46 e8 3e a0 a5 14 3f
       -0.2775999 -0.0036085148 0.45366237 0.58065224
000350 ae ad b1 be 16 56 9f 3e 13 93 36 be b6 8b e3 3e
       -0.3470282 0.31120366 -0.17829542 0.44442528
000360 d4 d0 09 bd 68 1d 16 bf 25 ef 04 3e b9 ff c8 3e
       -0.03364642 -0.5863862 0.12981851 0.392576
000370 57 39 d1 bc 82 62 c4 3e 06 21 06 bf 8f 10 8b 3e
       -0.025540037 0.38356405 -0.5239414 0.2716107
000380 31 61 b3 be 67 f3 19 bf ec 01 4f 3e bb e0 04 bf
       -0.3503509 -0.6013703 0.20215577 -0.5190541
000390 a3 e3 dc bc bc 59 8a be 1a b9 10 3f 10 3d fa 3e
       -0.026964014 -0.27021587 0.5653244 0.48874712
0003a0 5c 03 fe be 14 f3 93 be 5c 6e 63 3e 35 a1 dc be
       -0.49611938 -0.2889639 0.22210068 -0.4309174
0003b0 0b 59 ce 3d fb a9 76 3e 47 a4 d5 3e c7 fb fd be
       0.10075577 0.2408828 0.41726896 -0.49606153
0003c0 57 ba 56 bd fc 93 1e 3e 29 80 f7 3e 13 82 ac 3c
       -0.0524238 0.15486139 0.48339966 0.021058118
0003d0 e0 70 fa 3e 56 23 c4 3e 4e d3 f1 3e 3c 58 5b 3e
       0.48914242 0.3830821 0.47231525 0.21420377
0003e0 3a df 76 3c 5b de af 3e 6b a4 63 3d b7 f1 8f 3e
       0.01506787 0.3434933 0.055576723 0.281141
0003f0 5a a0 f9 3e 0e 0d 62 3e 6b af 0a bd af 95 2a be
       0.4875515 0.22075292 -0.033858698 -0.16658662

net.0.bias f4 [256]
000000 a5 72 0b 3f 7f e3 0a 3e bf 5d 9a 3e c8 bb 11 3e
       0.5447181 0.13563345 0.30149648 0.14231789
000010 4d b0 29 3d cc 1a 21 3d 5f 98 f4 be 60 42 d5 3e
       0.0414279 0.039332196 -0.477725 0.41652203
000020 f1 61 4d 3e d5 89 f6 be 0e 7d 9a 3e 4a ce b1 be
       0.20056893 -0.48152032 0.30173534 -0.347277
000030 71 84 85 be 11 06 a3 bd a5 45 b8 be 1e 42 2b be
       -0.26077607 -0.079601415 -0.35990635 -0.1672444
000040 38 ed 12 3e 71 98 0d 3e ac 04 90 be 46 b8 b3 bc
       0.14348304 0.13827683 -0.28128564 -0.021938454
000050 21 3e ea 3e b0 48 1b 3e 05 a8 02 3f 84 7e 48 be
       0.45750526 0.15164447 0.5103763 -0.19579512
000060 08 6f 09 bf dc 2d f0 3d 1e 33 02 bf ba 13 0c bf
       -0.53685045 0.11727497 -0.5085925 -0.547176
000070 2a 8c 60 bd c7 c3 24 be 31 da 13 bf f3 a0 dd 3e
       -0.05482117 -0.16090308 -0.5775481 0.43286857
000080 2e 1d 19 bf 6b 4b 10 bf 1a a5 c8 3e a9 b1 a0 3e
       -0.5981015 -0.5636508 0.39188462 0.31385544
000090 13 b7 b5 3d 23 20 29 3e 9d 72 7d bd da f1 e2 be
       0.08872809 0.16516165 -0.061876882 -0.44325143
0000a0 6b 42 8d bd e6 88 e7 be 28 f1 5d be 87 ca 6d 3e
       -0.06897434 -0.45221633 -0.21674025 0.2322179
0000b0 88 f8 ae 3d c3 d6 07 bf 21 b9 12 bf 8f 9c 00 3e
       0.08543497 -0.53062075 -0.57313734 0.12559722
0000c0 ba f8 e5 3e 4f b3 90 3e b6 a7 c8 3e 54 6a d4 be
       0.44916326 0.28261802 0.39190453 -0.41487372
0000d0 99 4e d1 3e dd 52 b6 be 6f ea be be 81 00 b3 be
       0.40880278 -0.35610095 -0.37288234 -0.34961322
0000e0 63 78 ac be 21 84 b3 be 08 44 05 bf 51 23 25 be
       -0.33685598 -0.35061744 -0.5205693 -0.16126753
0000f0 6d dc 2f 3c ae 2d 8d 3d d0 6b 0d 3f 15 1a 20 be
       0.010733706 0.06893478 0.55242634 -0.1563495
000100 e0 a7 03 3f 6d f4 e6 3d 0b ff 11 be ef 5f a4 3d
       0.5142803 0.11277089 -0.14257447 0.080261104
000110 b7 35 94 3e 3c 74 fa be cc 77 ff bd df 96 98 be
       0.2894723 -0.48916805 -0.12474021 -0.29802606
000120 40 a0 46 be 39 b0 14 be 5c ab f8 3e 04 62 78 3e
       -0.19397068 -0.14520349 0.48568237 0.2425614
000130 c1 a7 d0 be e0 a8 a3 be 8a 9e ae 3e a0 6a 0a be
       -0.40752986 -0.3196478 0.3410533 -0.13517237
000140 45 78 04 bf 90 3b f4 3e 1f 87 3c 3d 28 0d 5f be
       -0.51746017 0.47701693 0.0460273 -0.21782362
000150 55 b8 2e 3e 88 9b 14 3f 0b ca da bd 04 2d fc bd
       0.17062505 0.5804982 -0.10683068 -0.123132735
000160 49 bb d7 be 63 de 98 3d 81 77 0b bf 28 a1 c0 3c
       -0.42135075 0.07464292 -0.54479223 0.023514345
000170 81 44 00 3f 48 6c 21 bd 29 cd 85 be 46 46 b3 3e
       0.5010453 -0.039409906 -0.26133087 0.35014552
000180 c3 81 96 3e 14 32 22 3e d8 84 03 3b 6a f4 bd 3e
       0.29395875 0.15839416 0.0020068195 0.37100536
000190 42 ac 09 be aa 5a ce 3e 64 33 a1 3e a5 a0 ab bd
       -0.13444617 0.40303546 0.3148452 -0.0838025
0001a0 a1 0c bb 3d 65 d7 10 3e aa f8 06 bf 57 11 aa 3e
       0.09133268 0.14144666 -0.5272318 0.33216354
0001b0 d3 2a e3 be 63 12 e6 3e 44 b3 f2 3e 10 2d a6 3e
       -0.4436861 0.44935903 0.47402394 0.32456255
0001c0 76 ae 91 3e 08 4a d4 be ed 77 d9 3e b2 db 2e 3e
       0.28453416 -0.4146273 0.4247431 0.17075995
0001d0 a2 0e 87 3e 43 12 58 be f5 77 04 3d fd 6f 24 3e
       0.2637835 -0.21100716 0.032340962 0.16058345
0001e0 c0 6c 9a 3d 37 d9 69 3e 75 a9 00 bf e1 3f d5 be
       0.07540274 0.22836767 -0.5025857 -0.41650298
0001f0 d9 16 b5 be f9 a9 45 3e d3 85 eb be f1 ae 76 bd
       -0.35368994 0.1930312 -0.46000537 -0.06022543
000200 dc 7c f1 be 61 3f d9 3e d1 db 38 be 9a 93 45 be
       -0.47165573 0.42431167 -0.18052603 -0.19294587
000210 9d 5f e5 3e 51 92 18 bf ff ef 17 bf d6 e1 9a bd
       0.4479951 -0.5959826 -0.5935058 -0.07562606
000220 fd e5 bb bd b6 06 0b 3f 5e 50 74 be 49 f3 d3 be
       -0.09174726 0.54307115 -0.23858783 -0.4139655
000230 d0 d6 06 3f 47 70 cf be 2e 0c 17 3f b3 a4 d6 be
       0.5267153 -0.40515348 0.5900296 -0.4192253
000240 53 5e 15 be 3c d8 e6 3e 03 1f 15 be e9 d9 48 3e
       -0.14586763 0.4508685 -0.14562611 0.19614376
000250 03 24 89 3e 3e 00 cf 3e 7f d4 dd 3e f8 39 af 3e
       0.26785287 0.40429872 0.43326184 0.34223914
000260 97 32 cc 3e 27 dc d5 be a1 75 dc be ff 75 bc be
       0.39882347 -0.41769525 -0.43058494 -0.36808774
000270 ec 77 fc be 6a d7 2c be c2 43 fd bd 54 4c 94 3e
       -0.49310243 -0.16879049 -0.123664394 0.28964484
000280 ea 15 aa bd 6f 6d b6 3e 76 d5 13 3f ea aa ca 3e
       -0.08304961 0.35630366 0.5774759 0.39583522
000290 3d 30 00 3f 4c 11 28 3e 77 f0 ec bd e8 75 8c be
       0.50073606 0.16412848 -0.115693025 -0.27433705
0002a0 dd 9f a2 bd 15 76 7b 3d 5e c0 b6 3e 01 ba 42 3e
       -0.07940648 0.06139191 0.3569364 0.19016267
0002b0 50 3b c4 be 7f 61 3c bd 85 dc 08 bf 47 1e ca bc
       -0.38326502 -0.045991417 -0.53461486 -0.02467264
0002c0 08 5a 66 3d f4 80 14 3f bb 77 20 be 31 ad 56 be
       0.056238204 0.58009267 -0.15670674 -0.20964505
0002d0 62 66 80 be 22 30 fd 3e cb 01 f1 be 8d 70 ee be
       -0.25078112 0.49450785 -0.4707168 -0.46570244
0002e0 8c 46 92 3d f5 cf 0d 3c ba 3f 0f bf e4 ce d3 be
       0.07142362 0.008655538 -0.55956614 -0.41368783
0002f0 8c 51 2f 3e a1 75 0a bf b1 79 f5 3e d9 87 f0 be
       0.17120951 -0.5408574 0.47944406 -0.46978644
000300 1b 57 0c 3e 78 c7 40 be 40 ba 34 be 29 20 0a 3f
       0.13705103 -0.18826091 -0.17649174 0.5395532
000310 f2 af 8e 3e 33 d9 65 3e 7c 88 86 be 50 a5 92 3e
       0.2786861 0.22446136 -0.26276004 0.28641748
000320 1c 63 7e 3e 40 2d 3a be 58 18 98 be e6 ac 54 be
       0.24842495 -0.18181324 -0.29706073 -0.2076908
000330 81 05 be be 9f 2a 2a be 74 8f f3 3e 74 e5 db 3e
       -0.37113574 -0.16617821 0.47570384 0.42948496
000340 e9 51 53 3e 02 26 30 bd 2a 54 7f be b5 40 87 bb
       0.20636715 -0.043004997 -0.2493445 -0.0041275867
000350 15 3f 02 3f 8a 91 9d be 2a 8e c3 be e8 fe 55 3e
       0.50877506 -0.307751 -0.381944 0.2089802
000360 5b 5d 07 3f 0e b0 94 be 24 e4 a0 3e b4 14 0e be
       0.52876824 -0.2904057 0.31424057 -0.13875085
000370 15 a5 11 bf df ee 81 3e 69 14 dd be 1c 7d 08 3f
       -0.5689252 0.25377557 -0.43179634 0.533159
000380 27 39 ec 3e 28 82 74 be c6 64 f9 be 03 7f d3 3d
       0.46137354 -0.23877776 -0.48709697 0.1032696
000390 65 da d2 bc 48 76 48 be aa 16 c8 3d e3 c0 48 3d
       -0.025738904 -0.1957637 0.09769948 0.049012076
0003a0 a6 a9 0b 3f 62 82 c8 bc 3f 9f 40 be 8e da ee be
       0.5455574 -0.024476234 -0.18810748 -0.4665112
0003b0 51 26 16 3f 4e c5 0f 3f 7a e9 0f 3f 47 8b da bd
       0.58652216 0.5616044 0.5621563 -0.10671096
0003c0 b3 a9 a1 bd e5 d2 04 bf 5d d5 62 3d 88 8b 84 be
       -0.07893696 -0.518843 0.05537926 -0.25887704
0003d0 76 cc aa 3e 77 3d 0c bf 0d 85 c8 3e df 4c d3 3e
       0.33359116 -0.5478129 0.3916401 0.41269585
0003e0 53 60 dc bd 4e 77 c9 be 51 7a c4 3e 82 93 eb bd
       -0.1076056 -0.39348835 0.3837457 -0.11502744
0003f0 6b 74 fa 3e c6 5e eb 3c af e9 40 bd 8b 3c 4c 3e
       0.48916945 0.028731715 -0.047097858 0.1994497

net.2.weight f4 [256, 256]
000000 4f f1 88 3b 17 d0 04 bd 17 ce a3 3d b6 d2 90 3d
       0.004179157 -0.032425012 0.07998293 0.0707144
000010 0d 77 cc 3d 65 7c 14 3d 6a 9a 39 bd d4 29 68 bd
       0.09983645 0.036251444 -0.045313276 -0.056680515
000020 64 0f 07 3b 45 6d 17 3c 69 46 89 3d 5b ea 26 bd
       0.0020608539 0.0092423605 0.06702883 -0.040750843
000030 98 15 0c bd 14 0b d4 bd 69 99 52 bb 53 02 4f bc
       -0.03420028 -0.103536755 -0.0032134897 -0.0126348315
000040 c3 16 b1 3c 28 26 29 3d fc a5 50 3d 37 86 63 bc
       0.021617299 0.041296154 0.050939545 -0.01388698
000050 9c 33 86 bc 06 79 4c bd 07 a7 d8 3c 3d 1d 85 bd
       -0.016382031 -0.049920104 0.026446832 -0.064997174
000060 d2 94 8a bd c3 1c de 3c 9b f3 d9 3b 9e a3 63 3c
       -0.067666665 0.027113324 0.0066513545 0.01389399
000070 cf 85 5b bd 1e 71 79 3d 47 e5 a0 3d 0b 2f 3c 3c
       -0.053594407 0.060898893 0.07856231 0.011485825
000080 c9 87 61 bd ef f2 ba bc 50 60 5d bc c0 e9 4d bc
       -0.055061135 -0.022820918 -0.013511732 -0.012567937
000090 79 2d ad 3c a1 f3 2d bc 73 62 5f 3c 5b ac 27 3d
       0.021139847 -0.010617168 0.013634312 0.040935855
0000a0 9b 48 54 3d 2a 2e 77 bd c1 03 ee bd 4c 56 17 3d
       0.051827054 -0.06034676 -0.1162181 0.036947533
0000b0 59 52 93 bd 8b 34 ce 3d a5 ac 86 bd cb c1 93 3d
       -0.07193441 0.100686155 -0.06575898 0.072146975
0000c0 cd ca f6 3c 9a 1c fc bc 34 46 7f bd 1d a9 15 bb
       0.030126 -0.030775357 -0.06232281 -0.0022836395
0000d0 db ef 0a bc e2 35 8e bb d9 11 bc bd 3a b0 e7 3c
       -0.008480038 -0.0043399194 -0.09183092 0.028282274
0000e0 74 8f c6 bc a1 95 7f bc 64 e0 15 bd 01 34 68 3d
       -0.024238326 -0.015599639 -0.03659095 0.05669022
0000f0 fc c6 46 3d fc 28 26 3b 9a 48 1d 3d e4 e2 9f bc
       0.04852961 0.0025354018 0.038399316 -0.01951737
000100 ea 97 59 bd c8 0c 4d 3c d8 e4 16 3d c7 12 04 bd
       -0.053123392 0.012515254 0.036839336 -0.03224447
000110 1c 04 4b bd f0 1b b5 3c fc 30 c4 3c e4 e6 5b ba
       -0.049564466 0.022108048 0.023949139 -0.00083885924
000120 f5 fd a7 bd 39 9c 8a 3b 07 3b 53 3d 99 d5 b6 3c
       -0.08202735 0.004230049 0.051569965 0.022318648
000130 5d cd 7b 3c 4a 72 19 be eb 05 80 bd fd 53 c3 bc
       0.015368787 -0.14985004 -0.06251129 -0.02384376
000140 a7 55 10 3d ae 7f db 3b c5 63 09 3b c6 ae 63 bb
       0.035237934 0.00669857 0.0020964008 -0.0034741624
000150 88 e9 34 3d 6b f5 d9 3c ac b1 52 3d 6e a2 37 bd
       0.044168025 0.026606282 0.051438972 -0.04483264
000160 a6 b2 91 3c 6f 32 0c bd 63 e2 c5 bd 7a 71 29 3d
       0.017785382 -0.034227785 -0.096623205 0.041367985
000170 66 a4 ad bc 78 d6 d1 3c d3 bd 07 3d 6b 44 2a 3d
       -0.021196555 0.025614962 0.033140015 0.041569155
000180 19 d9 8f 3c af 7a 03 3d de 62 05 3d b1 73 41 3d
       0.017559575 0.032099422 0.03256499 0.047229473
000190 e1 ab 73 3d 66 f1 58 bd f8 01 8b bc ae 3d 4f 3d
       0.05949009 -0.05296459 -0.016968712 0.05059593
0001a0 b8 f9 17 bd 96 dd 89 bd af ec 29 3d 3a 7c c2 bc
       -0.037103385 -0.06731717 0.041485485 -0.023740876
0001b0 54 20 bd bd 82 0a 53 3d 9d ec 75 bd 81 88 1a 3d
       -0.09234682 0.051523693 -0.060040105 0.037727837
0001c0 b8 60 63 3c 70 69 ff bd d9 f8 40 bc 92 1b e5 bc
       0.01387804 -0.124712825 -0.01177808 -0.027967248
0001d0 ef 97 f1 3c f4 2b 0d bd 4d e0 85 bc 62 d5 20 3d
       0.029491393 -0.034465745 -0.016342307 0.039265998
0001e0 c4 1c bb 3d ba 50 72 3d fb 95 a4 bd 08 81 22 bd
       0.09136346 0.059159018 -0.08036419 -0.039673835
0001f0 e6 db 0d bd 05 d0 a2 bd 26 19 f5 3c a2 95 95 3d
       -0.03463354 -0.07949833 0.029919218 0.07303931
000200 96 dd 04 3d 86 3d a1 3c e2 c3 88 bd 61 af 76 3d
       0.032437883 0.019682657 -0.06677987 0.060225848
000210 de 2a f1 bc 34 03 7c bd e5 d9 95 bd ad 89 7b 3d
       -0.029439386 -0.061526492 -0.07316951 0.061410595
000220 da 57 86 3c bb 67 01 3d 85 64 51 3d 32 a1 86 3d
       0.016399313 0.031593066 0.051121254 0.06573714
000230 60 6e 4b 3c d5 95 12 3d 5c 97 05 bd c5 39 81 bc
       0.012416452 0.035787422 -0.03261505 -0.015774617
000240 ab d6 97 bd 27 ac fb bc c2 92 8f bc 5b 63 39 bd
       -0.074139915 -0.030721737 -0.017526034 -0.04526077
000250 3a 22 a5 3c 79 39 b8 3c d9 30 e6 3c 1d 82 92 bd
       0.020157922 0.022488343 0.028099464 -0.071537234
000260 9b e7 6f 3c 87 9c 87 bd d6 80 cd 3c e7 e2 72 3b
       0.014642621 -0.06621652 0.025085848 0.0037061514
000270 72 ff 8b bd 94 67 88 3c 29 16 3c bd 9e fc 6e bd
       -0.06835832 0.016650952 -0.04591957 -0.058346383
000280 3a d4 52 bd 4b b4 c9 3b 92 08 3b bd d7 bd a1 3d
       -0.051471926 0.006155526 -0.04566247 0.07897537
000290 db 9f 32 3d 51 b8 8d bc fe 61 85 bc 22 5d 34 3d
       0.04360948 -0.017299803 -0.016282078 0.04403413
0002a0 0a 23 98 3c 05 f3 09 3d 4c 16 f8 3c 6c b0 3b 3d
       0.018571395 0.033679027 0.03028407 0.045822546
0002b0 2c 97 55 bd d7 e0 94 3d 85 05 0d bc d9 a4 87 bc
       -0.05214612 0.07269447 -0.008607273 -0.016558098
0002c0 6c aa 3e bd 88 c9 4f 3c 16 27 c3 3c 9b 27 4b bd
       -0.046549246 0.012682326 0.023822349 -0.049598318
0002d0 49 fd 2a bd a9 31 f6 3c ee 57 ae 3c f7 1a cf 3c
       -0.041745458 0.030052977 0.021282163 0.025281413
0002e0 f4 2c 56 3d 60 c4 ef bc 19 26 05 bd 41 99 92 bb
       0.052288964 -0.029268444 -0.032507036 -0.0044738357
0002f0 55 f3 08 3c 7d 50 7d ba 8c cd 3b 3d 14 21 12 3d
       0.008358796 -0.0009663178 0.04585032 0.035676077
000300 02 6f 59 bd 2f b1 93 3c d0 fb 7b bd f8 9b 55 3c
       -0.05308438 0.018028824 -0.061519444 0.013037674
000310 e6 a2 2a bd 33 f2 78 3c 30 c3 0c 3b e0 dc 13 3c
       -0.04165926 0.015194464 0.0021478646 0.009024829
000320 a1 8e 34 bd ca 70 7a bd 95 b8 03 3d c8 ce f6 3c
       -0.044081334 -0.06114272 0.032158453 0.030127898
000330 22 1d 5b 3d 9c d6 05 3d 09 d0 33 3d 47 8a 0c bc
       0.05349458 0.03267537 0.04389957 -0.00857789
000340 93 19 58 bd e3 58 0f bc 42 d7 02 bd d5 70 e5 bc
       -0.052758764 -0.00874922 -0.031943567 -0.028007904
000350 f6 5a 62 3d 6b 5d 40 3d e7 35 94 bd 80 ae 05 3d
       0.05526253 0.04696409 -0.072368436 0.03263712
000360 af b0 be 3c 5a f1 30 3d e0 b5 7f bd b5 c0 27 3d
       0.023277609 0.04319892 -0.06242931 0.040955264
000370 f3 87 01 be be 8b 91 bd 9b 1a c5 bc 69 9c 8c bb
       -0.12649517 -0.07106732 -0.024060538 -0.0042911065
000380 27 b9 28 3d 7c 9f d8 bb a8 32 6b bc b4 3d 8a 3c
       0.0411922 -0.006610809 -0.014355339 0.016875125
000390 e9 d1 e3 3c 31 d9 1c bd 7c cc 80 3c ac 44 c0 bb
       0.027810054 -0.038293067 0.015722506 -0.0058675613
0003a0 19 07 18 3d 4f 59 04 3d bf 32 48 bc c4 73 0c 3d
       0.037116144 0.032311734 -0.01221913 0.03429009
0003b0 0d ea c1 bb 8d 91 9f bb 5d 41 23 bc 03 2b c9 bc
       -0.0059177936 -0.004869646 -0.009964314 -0.024556642
0003c0 b4 b4 2b bc 8c a6 17 bb 0a 20 bf 3c 96 d2 65 bd
       -0.010480095 -0.002314004 0.023330707 -0.056109034
0003d0 8c 94 c9 bc 98 05 24 bd 8b 8e c1 3b 23 52 1a bd
       -0.024606965 -0.040044397 0.005906885 -0.037675988
0003e0 7f 54 a6 bc 40 f1 b6 3a 77 6f 5e 3c be 59 b6 3c
       -0.020303963 0.0013957396 0.01357638 0.02225959
0003f0 8c 68 fb bc 20 e6 a6 3c 44 48 a8 3c 15 86 fd bc
       -0.0306895 0.020373404 0.020542271 -0.030947724

net.2.bias f4 [256]
000000 4c a0 0f bd ac cf 0e 3b f9 c9 58 3d d6 e8 a4 3d
       -0.03506498 0.0021791263 0.05292699 0.080522224
000010 15 75 3d bd ca 71 59 3d 6a d4 1d bd 6a 64 5b 3d
       -0.046254236 0.053087033 -0.038532652 0.05356256
000020 6c d3 8f 3c c2 a3 3d 3d d3 de a6 3c c0 13 21 bd
       0.017556868 0.04629875 0.020369923 -0.039325476
000030 85 93 42 3c 2e c3 02 3d 37 86 12 3c a1 fd d4 3c
       0.011875992 0.03192442 0.008943132 0.025999846
000040 5f 58 8b bd 1a 8a 7c bd 6b d5 79 3d c8 03 64 bd
       -0.06803965 -0.06165514 0.060994547 -0.05566767
000050 26 19 f2 3c 05 7c e0 bb 4f b0 ba bb 64 c0 90 3c
       0.029553007 -0.006850722 -0.005697287 0.017669864
000060 7e b3 54 3d 68 eb a7 bc 3a fd 4c bd 5f 6e 35 3d
       0.05192899 -0.020497993 -0.050046183 0.04429471
000070 73 88 35 3d 88 ce 4d bd 1b 3d d1 3c 28 bc d6 bc
       0.04431958 -0.05024579 0.025541833 -0.026212767
000080 5a da 67 bc db 70 91 3d ae 90 95 3d 22 ae fb 3b
       -0.01415118 0.071016036 0.07302986 0.0076806704
000090 c0 89 9f 3a 24 66 4c bd f4 e0 4b 3d 1f 5b 37 3d
       0.001217179 -0.049902096 0.04977508 0.044764634
0000a0 80 ee 40 bd 66 e6 5d bd 0d dc 7d 3d f7 83 0e bd
       -0.04710245 -0.054174803 0.061977435 -0.03479382
0000b0 f6 de 00 3d b5 78 6c b9 99 e7 40 bd 42 e4 1d bd
       0.031462632 -0.00022551681 -0.04709587 -0.03854776
0000c0 a4 dd 99 3c 12 3d 72 3d 07 f3 e6 3c 13 34 d8 3c
       0.018782444 0.059140272 0.028192056 0.026392018
0000d0 c5 5a 4e 3d 41 45 7a 3d dc 18 25 3d 96 ea 62 bd
       0.050379533 0.061101202 0.04030691 -0.0553995
0000e0 a7 37 e3 3c 4d 6a 00 3d c9 2b 43 bd a5 48 af 3c
       0.027736498 0.031351376 -0.04764918 0.021396944
0000f0 3b ec 0f bd 86 08 5c 3d b8 4c 80 3d 9a 7f 75 bd
       -0.035137396 0.053719066 0.06264633 -0.059936143
000100 a5 b5 a9 bc 99 b1 96 bc 26 5d 32 3d 8c c8 01 3c
       -0.020716498 -0.018395232 0.043545865 0.007921349
000110 60 b5 50 3d b9 02 10 bd 81 d7 58 3d ef e0 01 3c
       0.050954223 -0.035158847 0.052939896 0.0079271635
000120 ff d3 40 3d 2e d8 64 3d 84 8e 3e bd 6c b5 8e 3c
       0.047077175 0.055870228 -0.046522632 0.017420493
000130 80 41 3a 3d f4 01 8d bc 0c 4d 79 3d ef f3 da 3c
       0.045472622 -0.017212845 0.060864493 0.026727645
000140 de 36 58 3d a6 21 71 bd 3f 86 37 bd 22 fb 26 3d
       0.0527867 -0.05886998 -0.04480576 0.040766843
000150 a7 cf 28 3c 5e ff 6e bc 61 48 80 3d d6 b6 18 3d
       0.010303414 -0.0145872515 0.06263805 0.03728374
000160 96 91 d4 bc 7a 80 0e 3d 0d 3a f6 bc 88 03 12 3d
       -0.025948327 0.034790494 -0.030056978 0.0356479
000170 79 ee 35 bd 37 dd 8e 3c da 55 28 3d 0d e7 3a bd
       -0.04441688 0.017439468 0.0410975 -0.045630503
000180 d9 45 19 3c 5f bb f7 bc 2c 0c 0b 3c 8e c3 07 bd
       0.009355032 -0.030240713 0.008486789 -0.03314548
000190 00 c1 97 bc 18 64 cf bc fc cb 11 bc 81 82 21 3d
       -0.018524647 -0.025316283 -0.008898731 0.0394311
0001a0 40 de d6 bc 19 23 f5 bc ae b6 63 bd f9 0b 5c bd
       -0.026229024 -0.029923962 -0.05559414 -0.053722356
0001b0 d0 b5 81 bb c7 a3 24 3d 6b 5b 23 bc 2d 3d be bc
       -0.0039584413 0.040195253 -0.009970526 -0.02322253
0001c0 0d f4 96 3d f0 d1 a9 3c 04 7a 25 bd 7b 6e a8 3d
       0.07370768 0.020729989 -0.040399566 0.082241975
0001d0 25 58 08 bd 24 cb 12 bd fc 32 e0 3c 84 b6 1a bd
       -0.033287186 -0.03583826 0.027368061 -0.037771717
0001e0 e7 68 79 3d 50 4f 79 3d 58 bb 0c bd 11 9c 02 3d
       0.06089106 0.060866654 -0.034358352 0.031887118
0001f0 59 90 39 bc ef a4 aa 3c 07 f0 24 bd c0 3c 3c bd
       -0.011325919 0.0208306 -0.04026797 -0.045956373
000200 bb c3 68 3d 68 51 09 bc f1 01 0e 3d 9f 81 2c bc
       0.056827288 -0.008381225 0.03466982 -0.010528951
000210 cf a1 08 3d b2 c6 b4 3c a6 df 1b bd f6 eb db bc
       0.033357438 0.022067402 -0.038055085 -0.026845913
000220 a0 7c f6 3b b5 ba 60 3d ed 19 a1 bc 35 a9 20 bd
       0.0075221807 0.054865558 -0.019665683 -0.03922387
000230 89 09 3b bd f0 31 7f 3c 2c 1f a0 bc 37 83 16 bc
       -0.04566339 0.015575871 -0.019546114 -0.0091865575
000240 c7 bb e8 bc e5 e7 5e bd 06 27 96 bc e0 92 6d 3c
       -0.028409852 -0.05442037 -0.018329155 0.01450035
000250 a0 6b 03 3b 88 73 54 3d e6 75 78 3b e6 af 80 3b
       0.0020053163 0.05186799 0.003791207 0.0039272187
000260 e6 49 65 3c 47 00 7d 3d f4 ae 37 3d bc e5 e2 3c
       0.01399467 0.061767843 0.044844583 0.027697437
000270 31 eb fd bc 10 16 ef bb 9e 9d 6e bd f5 5e 33 3d
       -0.030995937 -0.007296331 -0.058255784 0.04379173
000280 7e 4d 12 3d 9e 31 f6 bb 3d 58 02 bc 24 fd 11 3d
       0.035718434 -0.007513239 -0.007955608 0.035641804
000290 40 91 5f 3a b4 7c e5 bc b0 cf 31 3d af 20 4a bd
       0.0008528419 -0.028013565 0.043410957 -0.049347576
0002a0 3a 7d 2b bd d9 43 f1 ba 49 f0 57 bd 97 1d ff bc
       -0.041867472 -0.0018407061 -0.05271939 -0.03114204
0002b0 d4 0a 2e 3d 0f d1 24 bd 9f 3b 4e bc 78 90 9d bc
       0.042490795 -0.040238436 -0.012587457 -0.019233927
0002c0 7b fe a3 3b e4 d8 52 3d 6b 57 8a 3c 69 91 d3 bc
       0.0050047017 0.051476374 0.016887387 -0.025826173
0002d0 a6 9c 35 3d b5 43 60 3d 37 4f 30 3d 82 30 62 3d
       0.044338845 0.05475207 0.043044295 0.055222042
0002e0 4a ad 4e 3c c1 c8 94 3d 35 90 4c 3d 14 98 65 3d
       0.0126145575 0.07264853 0.049942214 0.056053236
0002f0 31 a6 85 bd 8c f1 4d 3b d0 b1 75 3d 5d 28 6a 3d
       -0.06525839 0.003142449 0.05998403 0.0571674
000300 fc 48 3a 3d 1f a7 76 3c 50 5f f9 bc 0b 33 53 bd
       0.04547976 0.015054493 -0.030440956 -0.05156235
000310 af 13 b5 bc 6d b1 01 bd 5b 59 17 3d 94 ed c2 bc
       -0.022104112 -0.031663347 0.03695045 -0.023794927
000320 b7 34 3c 3c 25 72 34 3d 97 48 39 bb 04 66 8a 3d
       0.011487178 0.04405417 -0.0028272027 0.06757739
000330 77 3a 9b bd 01 ce 31 3d 0a 3e 25 bd a8 b0 f8 bb
       -0.07579511 0.04340935 -0.04034237 -0.0075894184
000340 be 29 d3 bb 02 31 52 bd 1e 73 28 bd 00 97 87 3b
       -0.006444185 -0.05131627 -0.04112541 0.0041378736
000350 65 ad 5a 3c db d7 41 3b c9 39 b6 3c aa 6d 02 3d
       0.013347005 0.0029578123 0.022244351 0.031842865
000360 18 cf 33 3b 07 a0 09 3c f1 a1 b7 bc c3 18 29 3c
       0.002743667 0.00839997 -0.022416087 0.010320845
000370 88 51 72 3d ff 05 b2 3c 4a d1 20 bd b0 86 c3 bc
       0.059159786 0.021731375 -0.039262094 -0.023867935
000380 2a be aa 39 db 6e 22 bd 7b 01 91 3c 14 63 bd 3c
       0.0003256661 -0.0396565 0.017700901 0.023118533
000390 85 20 7f bd 92 4c 77 3d 6f f2 ac 3c 66 01 4c bd
       -0.062286872 0.060375758 0.021111695 -0.04980602
0003a0 c7 1a ec 3c 4a f0 bd 3b f4 ed 30 3d a7 18 97 3d
       0.028821362 0.005796467 0.04319568 0.07377749
0003b0 cc 7a b8 3c a4 7e 34 3c cd 33 10 3c b7 cb 0f bc
       0.022519492 0.011016522 0.008801413 -0.008776597
0003c0 d3 7d 56 3d a2 58 6b bd 3b 8e c0 bc 5a 15 71 3d
       0.05236609 -0.057457574 -0.02350532 0.058858253
0003d0 67 bd 51 bd 4e 3f 83 3b ce d5 08 3c 89 68 0a 3d
       -0.05120602 0.0040053492 0.008351756 0.0337911
0003e0 07 56 11 bd dc 1a d9 bc eb 2d 81 3d 44 6a 32 bc
       -0.035482433 -0.026502065 0.06307586 -0.0108895935
0003f0 7e 1a fe 3c 9a 24 89 3d 23 90 f8 bc 1d 0a 38 3c
       0.031018492 0.06696434 -0.030342167 0.01123288

net.4.weight f4 [1, 256]
000000 be db f6 3c 25 37 a1 bd d0 72 97 3d 18 c9 70 bd
       0.030134078 -0.07871846 0.073949456 -0.058785528
000010 f9 66 b1 bd ed 99 96 bc ea 63 59 bd 13 bc 4d 3d
       -0.086622186 -0.018383944 -0.0530738 0.05022819
000020 a3 95 67 3d a2 cc 74 bd da 5f 14 3d 2e 0a 81 bd
       0.05653919 -0.059765466 0.036224224 -0.0630077
000030 57 68 73 3d 68 66 c9 3c 66 cc 4b 3d dd fe 5d bd
       0.059425678 0.024584964 0.049755476 -0.054198135
000040 9c b8 f0 3c 0c 5d a3 3d f3 e9 05 bd c0 bb 43 bb
       0.029384904 0.07976732 -0.032693814 -0.0029866546
000050 c1 6c b2 bc be c7 a3 3d 92 9e 36 3d ac 41 47 bd
       -0.021780374 0.07997082 0.04458482 -0.048646614
000060 75 cd 67 3d 12 e1 74 3d e5 32 81 bd 30 38 4d 3d
       0.056592423 0.059784956 -0.063085355 0.050102413
000070 2a 70 63 bd 83 4b 66 3d 90 0a 04 3d 1b 84 3c bd
       -0.05552689 0.056224357 0.032236636 -0.046024423
000080 63 27 46 bd 7d 41 84 bd 9c f5 7e bd b0 b5 3f 3d
       -0.048377406 -0.064578034 -0.06224595 0.04680413
000090 3b 8a 8e 3d b1 68 1c 3d 83 fc 17 3d 7a e2 a2 bd
       0.06959959 0.03818578 0.03710605 -0.07953353
0000a0 79 f9 a0 3d 06 b7 9d 3c 63 61 96 bd 3e 94 a7 3d
       0.07860083 0.019252311 -0.07342794 0.08182572
0000b0 f4 04 bc bd 3b 93 a7 3d 27 d7 ab bb a5 c8 7e bd
       -0.09180632 0.08182379 -0.005244154 -0.06220307
0000c0 2e 81 86 bd 82 57 87 bd e4 16 d0 3c ed 00 8d bd
       -0.06567608 -0.06608488 0.02540154 -0.06884942
0000d0 dc d3 88 3c d5 21 59 3d df ec 6c bd 12 46 ec 3c
       0.016702585 0.05301078 -0.057843085 0.028842006
0000e0 37 79 32 bd d9 a6 96 bd d0 37 00 bd 6f 06 da 3c
       -0.04357263 -0.073560424 -0.031303227 0.026614396
0000f0 fc 04 88 bd 1f d1 69 bd c9 f4 8e 3d 5b 72 62 3d
       -0.06641576 -0.0570842 0.06980283 0.05528484
000100 51 df 0f bd e4 4e 57 3d 49 32 14 bd 78 fb 98 bc
       -0.03512508 0.05256547 -0.03618077 -0.018674597
000110 09 b3 d2 3b 0f c2 03 3d 92 d9 93 bd cd 14 b5 bc
       0.006430034 0.03216749 -0.072192326 -0.022104645
000120 ed 81 30 bd bc 66 7e 3d 62 4f 75 3d be cb 40 3d
       -0.043092657 0.062109694 0.05989016 0.047069304
000130 65 cd 31 3d 6b fd 06 bd aa eb 6a 3d ed 2b 86 bd
       0.04340877 -0.032956522 0.057353653 -0.06551347
000140 86 3c 8b bd 00 62 3d 3d 41 6c b3 3d d5 6f 2c 3d
       -0.06798653 0.04623604 0.08760882 0.04209884
000150 c7 0b a0 bd 58 0e 8e 3d 5a ca 60 bd c3 55 7b 3d
       -0.07814746 0.069363296 -0.054880477 0.061361086
000160 a7 78 10 3b 26 69 e3 bc 6c ed ad 3d e2 ac 83 3d
       0.002204457 -0.0277601 0.0849255 0.06429459
000170 48 0b 8d 3d 50 44 53 3d 6b 95 28 bd 59 05 bc bc
       0.06886917 0.05157882 -0.04115812 -0.022951769
000180 a2 7f 20 bd e3 21 76 bd db b4 f8 bd 0c b9 70 3d
       -0.03918422 -0.06009091 -0.121438704 0.058770224
000190 db 32 ff bc 5f 20 1a bd db 6d 45 3d ba 26 28 3d
       -0.03115218 -0.037628528 0.04820047 0.041052558
0001a0 ab 4b 37 bd c5 30 2c 3d d3 e4 b4 bc 19 03 52 3d
       -0.044749897 0.042038698 -0.022081768 0.051272485
0001b0 22 73 26 bd 17 6d 36 3d ff 67 90 3d 72 65 62 3a
       -0.040637143 0.04453763 0.07051086 0.00086363323
0001c0 b7 9f 3d bd e5 18 4c 3d ef 65 9a 3d bf 8a e3 3d
       -0.046294894 0.04982843 0.075389735 0.11110448
0001d0 d8 a7 35 3d 7b e9 8d 3d c1 71 48 3d c3 9d c7 39
       0.04434952 0.069292985 0.04893661 0.0003807378
0001e0 6a 56 85 bd a2 16 4f 3d 11 41 90 bd 31 33 42 bd
       -0.06510623 0.050558694 -0.070436604 -0.0474121
0001f0 dc f4 22 3d 0e e3 68 bd a0 a3 6e 3d 13 d6 84 3d
       0.039784297 -0.05685716 0.058261514 0.06486144
000200 76 cc 14 bd 94 f8 7f bd 2f 8b 1e bd 0f b2 1f 3d
       -0.0363278 -0.062492922 -0.038706955 0.03898817
000210 8e 02 8e bd 80 9c dc bc 80 bb 97 3d 6e 90 0f 3d
       -0.06934081 -0.026930094 0.0740881 0.03504985
000220 be 89 2b 3d 08 f6 f7 3c 93 4a 92 3d 25 b2 56 bd
       0.041879408 0.030268684 0.0714313 -0.052415986
000230 8d 1d 1a bd 44 5b 80 bd f8 bb 40 bc 18 b7 98 bd
       -0.037625838 -0.062674075 -0.011763565 -0.07456797
000240 db eb b2 3d ce 31 24 3d e4 a8 3e bd 44 18 f0 3c
       0.08736392 0.04008656 -0.046547785 0.029308446
000250 74 ce a1 3c 6e 4d 99 3d 51 65 2a bd c0 b9 6d 3d
       0.019751765 0.07485472 -0.04160053 0.058038473
000260 5d 7f 2b 3d d0 f5 f5 bc 20 08 74 3b 2e ff 93 3d
       0.04186951 -0.03002444 0.0037236288 0.07226406
000270 95 2d 7b 3c 10 1e 3f bd 2a cb 75 3d 49 87 c8 bd
       0.015330692 -0.04665953 0.060008205 -0.097914286
000280 2a ca 72 3d b3 dd 62 bd f8 76 85 bd 4c cb 17 3d
       0.05927483 -0.05538721 -0.06516832 0.037059113
000290 47 5d 19 3d 98 6a 55 bc f2 25 00 bc 0e 0f 86 bd
       0.03744247 -0.013025902 -0.007821547 -0.0654584
0002a0 46 b2 31 bd 91 63 9a bd c2 f9 9b 3c c7 27 6f 3d
       -0.043382905 -0.07538522 0.019039992 0.058387544
0002b0 2d 31 6b bd d4 41 00 3d eb 30 2b 3b 5d 7c 83 3c
       -0.057419945 0.03131278 0.0026121687 0.016050512
0002c0 4b 11 fa bc c5 58 4f bd 9d cc 50 bd 58 d6 2a bd
       -0.030525824 -0.050621767 -0.050976384 -0.04170832
0002d0 52 60 4e 3d 47 8e ab 3d ed f2 86 bd 02 10 04 3d
       0.050384827 0.083767466 -0.06589303 0.03224183
0002e0 7c b8 c8 3c ef 39 b3 bd 43 9e 72 bd 70 f0 74 bd
       0.024502032 -0.08751284 -0.05923296 -0.05979961
0002f0 6f f2 40 3c 33 d8 95 3c d5 7b 46 bd 62 b2 97 3d
       0.011776551 0.018291568 -0.04845794 0.07407071
000300 41 77 2d 3d 43 7f 00 3d 58 ad 6b bd 2b f8 ad 3d
       0.042350058 0.031371366 -0.05753836 0.084946
000310 0e f5 8a bd 78 82 a5 bd db 43 49 bd fa 75 21 bd
       -0.06785022 -0.080815256 -0.049136978 -0.03941915
000320 a9 68 93 3d 05 f0 50 bd 58 8d 9c bd 07 fd 80 3d
       0.07197697 -0.05101015 -0.07644147 0.06298261
000330 c2 c8 32 3d d7 c0 a2 bd ec f1 f0 bc b5 80 27 bd
       0.04364849 -0.079469375 -0.029412232 -0.04089423
000340 4a dc 3e bd f4 90 8e 3c e0 c3 92 bb 8b 62 74 bd
       -0.046596803 0.017403103 -0.0044789165 -0.05966429
000350 59 af f9 3c ab 07 f0 bc 30 19 ba bd 3d 4b f2 3c
       0.03047912 -0.029300531 -0.090868354 0.029576892
000360 7f f1 4f 3d 36 0e d5 3d e9 67 bc bc 7c 1f b3 3d
       0.050767418 0.10403101 -0.022998767 0.087462395
000370 a9 a0 4c bd 26 0b 5f 3d 08 1c b1 bd 8a 63 28 bd
       -0.049957905 0.05445399 -0.08647925 -0.041110553
000380 fc 15 6b 3d 40 8b 96 3d 6f 86 5e bd a1 13 81 bd
       0.057394013 0.073507786 -0.054327425 -0.06302572
000390 c7 fb b9 ba 5a f3 dc 3c 01 36 68 3d d2 07 b6 3b
       -0.0014189415 0.026971508 0.056692127 0.0055551315
0003a0 3a 31 a1 3d 61 3a 55 3d 1c af f4 bc 9d f6 f1 3c
       0.07870717 0.052057628 -0.029868655 0.02953654
0003b0 94 29 a4 bd 18 0e ab 3d 39 f1 fa bc 3e be 48 ba
       -0.08015743 0.083522975 -0.030632602 -0.0007657743
0003c0 25 53 71 bd 91 e0 fe bc 41 72 8c 3d 05 d0 6b bd
       -0.058917183 -0.031112941 0.0685773 -0.05757143
0003d0 ab 2c 40 3d 5e 5e bf 3c 82 40 f4 bb 26 f0 0e bd
       0.0469176 0.023360427 -0.007453979 -0.034896992
0003e0 c4 25 51 3d 27 a5 00 bd 9c aa cb bc d4 d4 6b 3d
       0.051061407 -0.0314075 -0.024861626 0.057576016
0003f0 07 65 13 3d fb 26 70 bd ba 01 fa 3d a1 c0 51 3d
       0.03598502 -0.058630925 0.122073606 0.051209096
